program(1.0)
[buildInfo = dict<tensor<string, []>, tensor<string, []>>({{"coremlc-component-MIL", "3500.14.1"}, {"coremlc-version", "3500.32.1"}})]
{
    func main<ios16>(tensor<fp32, [1, 4160]> audio_input, tensor<fp32, [1, 128]> cell_state, tensor<fp32, [1, 128]> hidden_state) {
            tensor<int32, [2]> initial_context_begin_0 = const()[name = tensor<string, []>("initial_context_begin_0"), val = tensor<int32, [2]>([0, 0])];
            tensor<int32, [2]> initial_context_end_0 = const()[name = tensor<string, []>("initial_context_end_0"), val = tensor<int32, [2]>([1, 64])];
            tensor<bool, [2]> initial_context_end_mask_0 = const()[name = tensor<string, []>("initial_context_end_mask_0"), val = tensor<bool, [2]>([true, false])];
            tensor<string, []> audio_input_to_fp16_dtype_0 = const()[name = tensor<string, []>("audio_input_to_fp16_dtype_0"), val = tensor<string, []>("fp16")];
            tensor<fp16, [1, 4160]> audio_input_to_fp16 = cast(dtype = audio_input_to_fp16_dtype_0, x = audio_input)[name = tensor<string, []>("cast_53")];
            tensor<fp16, [1, 64]> initial_context_cast_fp16 = slice_by_index(begin = initial_context_begin_0, end = initial_context_end_0, end_mask = initial_context_end_mask_0, x = audio_input_to_fp16)[name = tensor<string, []>("initial_context_cast_fp16")];
            tensor<int32, [2]> current_audio_begin_0 = const()[name = tensor<string, []>("current_audio_begin_0"), val = tensor<int32, [2]>([0, 64])];
            tensor<int32, [2]> current_audio_end_0 = const()[name = tensor<string, []>("current_audio_end_0"), val = tensor<int32, [2]>([1, 4160])];
            tensor<bool, [2]> current_audio_end_mask_0 = const()[name = tensor<string, []>("current_audio_end_mask_0"), val = tensor<bool, [2]>([true, true])];
            tensor<fp16, [1, 4096]> current_audio_cast_fp16 = slice_by_index(begin = current_audio_begin_0, end = current_audio_end_0, end_mask = current_audio_end_mask_0, x = audio_input_to_fp16)[name = tensor<string, []>("current_audio_cast_fp16")];
            tensor<int32, [2]> chunk_1_begin_0 = const()[name = tensor<string, []>("chunk_1_begin_0"), val = tensor<int32, [2]>([0, 0])];
            tensor<int32, [2]> chunk_1_end_0 = const()[name = tensor<string, []>("chunk_1_end_0"), val = tensor<int32, [2]>([1, 512])];
            tensor<bool, [2]> chunk_1_end_mask_0 = const()[name = tensor<string, []>("chunk_1_end_mask_0"), val = tensor<bool, [2]>([true, false])];
            tensor<fp16, [1, 512]> chunk_1_cast_fp16 = slice_by_index(begin = chunk_1_begin_0, end = chunk_1_end_0, end_mask = chunk_1_end_mask_0, x = current_audio_cast_fp16)[name = tensor<string, []>("chunk_1_cast_fp16")];
            tensor<int32, []> var_38 = const()[name = tensor<string, []>("op_38"), val = tensor<int32, []>(1)];
            tensor<bool, []> x_1_interleave_0 = const()[name = tensor<string, []>("x_1_interleave_0"), val = tensor<bool, []>(false)];
            tensor<fp16, [1, 576]> x_1_cast_fp16 = concat(axis = var_38, interleave = x_1_interleave_0, values = (initial_context_cast_fp16, chunk_1_cast_fp16))[name = tensor<string, []>("x_1_cast_fp16")];
            tensor<int32, [2]> context_1_begin_0 = const()[name = tensor<string, []>("context_1_begin_0"), val = tensor<int32, [2]>([0, 448])];
            tensor<int32, [2]> context_1_end_0 = const()[name = tensor<string, []>("context_1_end_0"), val = tensor<int32, [2]>([1, 512])];
            tensor<bool, [2]> context_1_end_mask_0 = const()[name = tensor<string, []>("context_1_end_mask_0"), val = tensor<bool, [2]>([true, true])];
            tensor<fp16, [1, 64]> context_1_cast_fp16 = slice_by_index(begin = context_1_begin_0, end = context_1_end_0, end_mask = context_1_end_mask_0, x = chunk_1_cast_fp16)[name = tensor<string, []>("context_1_cast_fp16")];
            tensor<int32, [2]> chunk_3_begin_0 = const()[name = tensor<string, []>("chunk_3_begin_0"), val = tensor<int32, [2]>([0, 512])];
            tensor<int32, [2]> chunk_3_end_0 = const()[name = tensor<string, []>("chunk_3_end_0"), val = tensor<int32, [2]>([1, 1024])];
            tensor<bool, [2]> chunk_3_end_mask_0 = const()[name = tensor<string, []>("chunk_3_end_mask_0"), val = tensor<bool, [2]>([true, false])];
            tensor<fp16, [1, 512]> chunk_3_cast_fp16 = slice_by_index(begin = chunk_3_begin_0, end = chunk_3_end_0, end_mask = chunk_3_end_mask_0, x = current_audio_cast_fp16)[name = tensor<string, []>("chunk_3_cast_fp16")];
            tensor<int32, []> var_61 = const()[name = tensor<string, []>("op_61"), val = tensor<int32, []>(1)];
            tensor<bool, []> x_15_interleave_0 = const()[name = tensor<string, []>("x_15_interleave_0"), val = tensor<bool, []>(false)];
            tensor<fp16, [1, 576]> x_15_cast_fp16 = concat(axis = var_61, interleave = x_15_interleave_0, values = (context_1_cast_fp16, chunk_3_cast_fp16))[name = tensor<string, []>("x_15_cast_fp16")];
            tensor<int32, [2]> context_3_begin_0 = const()[name = tensor<string, []>("context_3_begin_0"), val = tensor<int32, [2]>([0, 448])];
            tensor<int32, [2]> context_3_end_0 = const()[name = tensor<string, []>("context_3_end_0"), val = tensor<int32, [2]>([1, 512])];
            tensor<bool, [2]> context_3_end_mask_0 = const()[name = tensor<string, []>("context_3_end_mask_0"), val = tensor<bool, [2]>([true, true])];
            tensor<fp16, [1, 64]> context_3_cast_fp16 = slice_by_index(begin = context_3_begin_0, end = context_3_end_0, end_mask = context_3_end_mask_0, x = chunk_3_cast_fp16)[name = tensor<string, []>("context_3_cast_fp16")];
            tensor<int32, [2]> chunk_5_begin_0 = const()[name = tensor<string, []>("chunk_5_begin_0"), val = tensor<int32, [2]>([0, 1024])];
            tensor<int32, [2]> chunk_5_end_0 = const()[name = tensor<string, []>("chunk_5_end_0"), val = tensor<int32, [2]>([1, 1536])];
            tensor<bool, [2]> chunk_5_end_mask_0 = const()[name = tensor<string, []>("chunk_5_end_mask_0"), val = tensor<bool, [2]>([true, false])];
            tensor<fp16, [1, 512]> chunk_5_cast_fp16 = slice_by_index(begin = chunk_5_begin_0, end = chunk_5_end_0, end_mask = chunk_5_end_mask_0, x = current_audio_cast_fp16)[name = tensor<string, []>("chunk_5_cast_fp16")];
            tensor<int32, []> var_84 = const()[name = tensor<string, []>("op_84"), val = tensor<int32, []>(1)];
            tensor<bool, []> x_29_interleave_0 = const()[name = tensor<string, []>("x_29_interleave_0"), val = tensor<bool, []>(false)];
            tensor<fp16, [1, 576]> x_29_cast_fp16 = concat(axis = var_84, interleave = x_29_interleave_0, values = (context_3_cast_fp16, chunk_5_cast_fp16))[name = tensor<string, []>("x_29_cast_fp16")];
            tensor<int32, [2]> context_5_begin_0 = const()[name = tensor<string, []>("context_5_begin_0"), val = tensor<int32, [2]>([0, 448])];
            tensor<int32, [2]> context_5_end_0 = const()[name = tensor<string, []>("context_5_end_0"), val = tensor<int32, [2]>([1, 512])];
            tensor<bool, [2]> context_5_end_mask_0 = const()[name = tensor<string, []>("context_5_end_mask_0"), val = tensor<bool, [2]>([true, true])];
            tensor<fp16, [1, 64]> context_5_cast_fp16 = slice_by_index(begin = context_5_begin_0, end = context_5_end_0, end_mask = context_5_end_mask_0, x = chunk_5_cast_fp16)[name = tensor<string, []>("context_5_cast_fp16")];
            tensor<int32, [2]> chunk_7_begin_0 = const()[name = tensor<string, []>("chunk_7_begin_0"), val = tensor<int32, [2]>([0, 1536])];
            tensor<int32, [2]> chunk_7_end_0 = const()[name = tensor<string, []>("chunk_7_end_0"), val = tensor<int32, [2]>([1, 2048])];
            tensor<bool, [2]> chunk_7_end_mask_0 = const()[name = tensor<string, []>("chunk_7_end_mask_0"), val = tensor<bool, [2]>([true, false])];
            tensor<fp16, [1, 512]> chunk_7_cast_fp16 = slice_by_index(begin = chunk_7_begin_0, end = chunk_7_end_0, end_mask = chunk_7_end_mask_0, x = current_audio_cast_fp16)[name = tensor<string, []>("chunk_7_cast_fp16")];
            tensor<int32, []> var_107 = const()[name = tensor<string, []>("op_107"), val = tensor<int32, []>(1)];
            tensor<bool, []> x_43_interleave_0 = const()[name = tensor<string, []>("x_43_interleave_0"), val = tensor<bool, []>(false)];
            tensor<fp16, [1, 576]> x_43_cast_fp16 = concat(axis = var_107, interleave = x_43_interleave_0, values = (context_5_cast_fp16, chunk_7_cast_fp16))[name = tensor<string, []>("x_43_cast_fp16")];
            tensor<int32, [2]> context_7_begin_0 = const()[name = tensor<string, []>("context_7_begin_0"), val = tensor<int32, [2]>([0, 448])];
            tensor<int32, [2]> context_7_end_0 = const()[name = tensor<string, []>("context_7_end_0"), val = tensor<int32, [2]>([1, 512])];
            tensor<bool, [2]> context_7_end_mask_0 = const()[name = tensor<string, []>("context_7_end_mask_0"), val = tensor<bool, [2]>([true, true])];
            tensor<fp16, [1, 64]> context_7_cast_fp16 = slice_by_index(begin = context_7_begin_0, end = context_7_end_0, end_mask = context_7_end_mask_0, x = chunk_7_cast_fp16)[name = tensor<string, []>("context_7_cast_fp16")];
            tensor<int32, [2]> chunk_9_begin_0 = const()[name = tensor<string, []>("chunk_9_begin_0"), val = tensor<int32, [2]>([0, 2048])];
            tensor<int32, [2]> chunk_9_end_0 = const()[name = tensor<string, []>("chunk_9_end_0"), val = tensor<int32, [2]>([1, 2560])];
            tensor<bool, [2]> chunk_9_end_mask_0 = const()[name = tensor<string, []>("chunk_9_end_mask_0"), val = tensor<bool, [2]>([true, false])];
            tensor<fp16, [1, 512]> chunk_9_cast_fp16 = slice_by_index(begin = chunk_9_begin_0, end = chunk_9_end_0, end_mask = chunk_9_end_mask_0, x = current_audio_cast_fp16)[name = tensor<string, []>("chunk_9_cast_fp16")];
            tensor<int32, []> var_130 = const()[name = tensor<string, []>("op_130"), val = tensor<int32, []>(1)];
            tensor<bool, []> x_57_interleave_0 = const()[name = tensor<string, []>("x_57_interleave_0"), val = tensor<bool, []>(false)];
            tensor<fp16, [1, 576]> x_57_cast_fp16 = concat(axis = var_130, interleave = x_57_interleave_0, values = (context_7_cast_fp16, chunk_9_cast_fp16))[name = tensor<string, []>("x_57_cast_fp16")];
            tensor<int32, [2]> context_9_begin_0 = const()[name = tensor<string, []>("context_9_begin_0"), val = tensor<int32, [2]>([0, 448])];
            tensor<int32, [2]> context_9_end_0 = const()[name = tensor<string, []>("context_9_end_0"), val = tensor<int32, [2]>([1, 512])];
            tensor<bool, [2]> context_9_end_mask_0 = const()[name = tensor<string, []>("context_9_end_mask_0"), val = tensor<bool, [2]>([true, true])];
            tensor<fp16, [1, 64]> context_9_cast_fp16 = slice_by_index(begin = context_9_begin_0, end = context_9_end_0, end_mask = context_9_end_mask_0, x = chunk_9_cast_fp16)[name = tensor<string, []>("context_9_cast_fp16")];
            tensor<int32, [2]> chunk_11_begin_0 = const()[name = tensor<string, []>("chunk_11_begin_0"), val = tensor<int32, [2]>([0, 2560])];
            tensor<int32, [2]> chunk_11_end_0 = const()[name = tensor<string, []>("chunk_11_end_0"), val = tensor<int32, [2]>([1, 3072])];
            tensor<bool, [2]> chunk_11_end_mask_0 = const()[name = tensor<string, []>("chunk_11_end_mask_0"), val = tensor<bool, [2]>([true, false])];
            tensor<fp16, [1, 512]> chunk_11_cast_fp16 = slice_by_index(begin = chunk_11_begin_0, end = chunk_11_end_0, end_mask = chunk_11_end_mask_0, x = current_audio_cast_fp16)[name = tensor<string, []>("chunk_11_cast_fp16")];
            tensor<int32, []> var_153 = const()[name = tensor<string, []>("op_153"), val = tensor<int32, []>(1)];
            tensor<bool, []> x_71_interleave_0 = const()[name = tensor<string, []>("x_71_interleave_0"), val = tensor<bool, []>(false)];
            tensor<fp16, [1, 576]> x_71_cast_fp16 = concat(axis = var_153, interleave = x_71_interleave_0, values = (context_9_cast_fp16, chunk_11_cast_fp16))[name = tensor<string, []>("x_71_cast_fp16")];
            tensor<int32, [2]> context_11_begin_0 = const()[name = tensor<string, []>("context_11_begin_0"), val = tensor<int32, [2]>([0, 448])];
            tensor<int32, [2]> context_11_end_0 = const()[name = tensor<string, []>("context_11_end_0"), val = tensor<int32, [2]>([1, 512])];
            tensor<bool, [2]> context_11_end_mask_0 = const()[name = tensor<string, []>("context_11_end_mask_0"), val = tensor<bool, [2]>([true, true])];
            tensor<fp16, [1, 64]> context_11_cast_fp16 = slice_by_index(begin = context_11_begin_0, end = context_11_end_0, end_mask = context_11_end_mask_0, x = chunk_11_cast_fp16)[name = tensor<string, []>("context_11_cast_fp16")];
            tensor<int32, [2]> chunk_13_begin_0 = const()[name = tensor<string, []>("chunk_13_begin_0"), val = tensor<int32, [2]>([0, 3072])];
            tensor<int32, [2]> chunk_13_end_0 = const()[name = tensor<string, []>("chunk_13_end_0"), val = tensor<int32, [2]>([1, 3584])];
            tensor<bool, [2]> chunk_13_end_mask_0 = const()[name = tensor<string, []>("chunk_13_end_mask_0"), val = tensor<bool, [2]>([true, false])];
            tensor<fp16, [1, 512]> chunk_13_cast_fp16 = slice_by_index(begin = chunk_13_begin_0, end = chunk_13_end_0, end_mask = chunk_13_end_mask_0, x = current_audio_cast_fp16)[name = tensor<string, []>("chunk_13_cast_fp16")];
            tensor<int32, []> var_176 = const()[name = tensor<string, []>("op_176"), val = tensor<int32, []>(1)];
            tensor<bool, []> x_85_interleave_0 = const()[name = tensor<string, []>("x_85_interleave_0"), val = tensor<bool, []>(false)];
            tensor<fp16, [1, 576]> x_85_cast_fp16 = concat(axis = var_176, interleave = x_85_interleave_0, values = (context_11_cast_fp16, chunk_13_cast_fp16))[name = tensor<string, []>("x_85_cast_fp16")];
            tensor<int32, [2]> context_begin_0 = const()[name = tensor<string, []>("context_begin_0"), val = tensor<int32, [2]>([0, 448])];
            tensor<int32, [2]> context_end_0 = const()[name = tensor<string, []>("context_end_0"), val = tensor<int32, [2]>([1, 512])];
            tensor<bool, [2]> context_end_mask_0 = const()[name = tensor<string, []>("context_end_mask_0"), val = tensor<bool, [2]>([true, true])];
            tensor<fp16, [1, 64]> context_cast_fp16 = slice_by_index(begin = context_begin_0, end = context_end_0, end_mask = context_end_mask_0, x = chunk_13_cast_fp16)[name = tensor<string, []>("context_cast_fp16")];
            tensor<int32, [2]> chunk_begin_0 = const()[name = tensor<string, []>("chunk_begin_0"), val = tensor<int32, [2]>([0, 3584])];
            tensor<int32, [2]> chunk_end_0 = const()[name = tensor<string, []>("chunk_end_0"), val = tensor<int32, [2]>([1, 1])];
            tensor<bool, [2]> chunk_end_mask_0 = const()[name = tensor<string, []>("chunk_end_mask_0"), val = tensor<bool, [2]>([true, true])];
            tensor<fp16, [1, 512]> chunk_cast_fp16 = slice_by_index(begin = chunk_begin_0, end = chunk_end_0, end_mask = chunk_end_mask_0, x = current_audio_cast_fp16)[name = tensor<string, []>("chunk_cast_fp16")];
            tensor<int32, []> var_199 = const()[name = tensor<string, []>("op_199"), val = tensor<int32, []>(1)];
            tensor<bool, []> x_99_interleave_0 = const()[name = tensor<string, []>("x_99_interleave_0"), val = tensor<bool, []>(false)];
            tensor<fp16, [1, 576]> x_99_cast_fp16 = concat(axis = var_199, interleave = x_99_interleave_0, values = (context_cast_fp16, chunk_cast_fp16))[name = tensor<string, []>("x_99_cast_fp16")];
            tensor<int32, [1]> x_3_axes_0 = const()[name = tensor<string, []>("x_3_axes_0"), val = tensor<int32, [1]>([1])];
            tensor<fp16, [1, 1, 576]> x_3_cast_fp16 = expand_dims(axes = x_3_axes_0, x = x_1_cast_fp16)[name = tensor<string, []>("x_3_cast_fp16")];
            tensor<string, []> stft_out_1_pad_type_0 = const()[name = tensor<string, []>("stft_out_1_pad_type_0"), val = tensor<string, []>("custom")];
            tensor<int32, [2]> stft_out_1_pad_0 = const()[name = tensor<string, []>("stft_out_1_pad_0"), val = tensor<int32, [2]>([128, 128])];
            tensor<int32, [1]> stft_out_1_strides_0 = const()[name = tensor<string, []>("stft_out_1_strides_0"), val = tensor<int32, [1]>([256])];
            tensor<int32, [1]> stft_out_1_dilations_0 = const()[name = tensor<string, []>("stft_out_1_dilations_0"), val = tensor<int32, [1]>([1])];
            tensor<int32, []> stft_out_1_groups_0 = const()[name = tensor<string, []>("stft_out_1_groups_0"), val = tensor<int32, []>(1)];
            tensor<fp16, [258, 1, 256]> stft_forward_basis_to_fp16_quantized = constexpr_affine_dequantize()[axis = tensor<int32, []>(0), name = tensor<string, []>("stft_forward_basis_to_fp16_quantized"), quantized_data = tensor<int8, [258, 1, 256]>(BLOBFILE(path = tensor<string, []>("@model_path/weights/weight.bin"), offset = tensor<uint64, []>(64))), scale = tensor<fp16, [258]>(BLOBFILE(path = tensor<string, []>("@model_path/weights/weight.bin"), offset = tensor<uint64, []>(66560))), zero_point = tensor<int8, [258]>(BLOBFILE(path = tensor<string, []>("@model_path/weights/weight.bin"), offset = tensor<uint64, []>(66176)))];
            tensor<fp16, [1, 258, 3]> stft_out_1_cast_fp16 = conv(dilations = stft_out_1_dilations_0, groups = stft_out_1_groups_0, pad = stft_out_1_pad_0, pad_type = stft_out_1_pad_type_0, strides = stft_out_1_strides_0, weight = stft_forward_basis_to_fp16_quantized, x = x_3_cast_fp16)[name = tensor<string, []>("stft_out_1_cast_fp16")];
            tensor<int32, [3]> var_219_begin_0 = const()[name = tensor<string, []>("op_219_begin_0"), val = tensor<int32, [3]>([0, 0, 0])];
            tensor<int32, [3]> var_219_end_0 = const()[name = tensor<string, []>("op_219_end_0"), val = tensor<int32, [3]>([1, 129, 3])];
            tensor<bool, [3]> var_219_end_mask_0 = const()[name = tensor<string, []>("op_219_end_mask_0"), val = tensor<bool, [3]>([true, false, true])];
            tensor<fp16, [1, 129, 3]> var_219_cast_fp16 = slice_by_index(begin = var_219_begin_0, end = var_219_end_0, end_mask = var_219_end_mask_0, x = stft_out_1_cast_fp16)[name = tensor<string, []>("op_219_cast_fp16")];
            tensor<int32, [3]> var_222_begin_0 = const()[name = tensor<string, []>("op_222_begin_0"), val = tensor<int32, [3]>([0, 129, 0])];
            tensor<int32, [3]> var_222_end_0 = const()[name = tensor<string, []>("op_222_end_0"), val = tensor<int32, [3]>([1, 258, 3])];
            tensor<bool, [3]> var_222_end_mask_0 = const()[name = tensor<string, []>("op_222_end_mask_0"), val = tensor<bool, [3]>([true, true, true])];
            tensor<fp16, [1, 129, 3]> var_222_cast_fp16 = slice_by_index(begin = var_222_begin_0, end = var_222_end_0, end_mask = var_222_end_mask_0, x = stft_out_1_cast_fp16)[name = tensor<string, []>("op_222_cast_fp16")];
            tensor<fp16, []> var_201_promoted_to_fp16 = const()[name = tensor<string, []>("op_201_promoted_to_fp16"), val = tensor<fp16, []>(0x1p+1)];
            tensor<fp16, [1, 129, 3]> var_224_cast_fp16 = pow(x = var_219_cast_fp16, y = var_201_promoted_to_fp16)[name = tensor<string, []>("op_224_cast_fp16")];
            tensor<fp16, []> var_201_promoted_1_to_fp16 = const()[name = tensor<string, []>("op_201_promoted_1_to_fp16"), val = tensor<fp16, []>(0x1p+1)];
            tensor<fp16, [1, 129, 3]> var_225_cast_fp16 = pow(x = var_222_cast_fp16, y = var_201_promoted_1_to_fp16)[name = tensor<string, []>("op_225_cast_fp16")];
            tensor<fp16, [1, 129, 3]> var_226_cast_fp16 = add(x = var_224_cast_fp16, y = var_225_cast_fp16)[name = tensor<string, []>("op_226_cast_fp16")];
            tensor<fp16, []> var_227_to_fp16 = const()[name = tensor<string, []>("op_227_to_fp16"), val = tensor<fp16, []>(0x1p-24)];
            tensor<fp16, [1, 129, 3]> var_228_cast_fp16 = add(x = var_226_cast_fp16, y = var_227_to_fp16)[name = tensor<string, []>("op_228_cast_fp16")];
            tensor<fp16, [1, 129, 3]> magnitude_1_cast_fp16 = sqrt(x = var_228_cast_fp16)[name = tensor<string, []>("magnitude_1_cast_fp16")];
            tensor<fp16, []> var_230_to_fp16 = const()[name = tensor<string, []>("op_230_to_fp16"), val = tensor<fp16, []>(0x1p-24)];
            tensor<fp16, [1, 129, 3]> var_231_cast_fp16 = add(x = magnitude_1_cast_fp16, y = var_230_to_fp16)[name = tensor<string, []>("op_231_cast_fp16")];
            tensor<fp16, []> input_1_epsilon_0_to_fp16 = const()[name = tensor<string, []>("input_1_epsilon_0_to_fp16"), val = tensor<fp16, []>(0x0p+0)];
            tensor<fp16, [1, 129, 3]> input_1_cast_fp16 = log(epsilon = input_1_epsilon_0_to_fp16, x = var_231_cast_fp16)[name = tensor<string, []>("input_1_cast_fp16")];
            tensor<string, []> input_3_pad_type_0 = const()[name = tensor<string, []>("input_3_pad_type_0"), val = tensor<string, []>("custom")];
            tensor<int32, [2]> input_3_pad_0 = const()[name = tensor<string, []>("input_3_pad_0"), val = tensor<int32, [2]>([1, 1])];
            tensor<int32, [1]> input_3_strides_0 = const()[name = tensor<string, []>("input_3_strides_0"), val = tensor<int32, [1]>([1])];
            tensor<int32, [1]> input_3_dilations_0 = const()[name = tensor<string, []>("input_3_dilations_0"), val = tensor<int32, [1]>([1])];
            tensor<int32, []> input_3_groups_0 = const()[name = tensor<string, []>("input_3_groups_0"), val = tensor<int32, []>(1)];
            tensor<fp16, [128, 129, 3]> encoder_layers_0_weight_to_fp16_quantized = constexpr_affine_dequantize()[axis = tensor<int32, []>(0), name = tensor<string, []>("encoder_layers_0_weight_to_fp16_quantized"), quantized_data = tensor<int8, [128, 129, 3]>(BLOBFILE(path = tensor<string, []>("@model_path/weights/weight.bin"), offset = tensor<uint64, []>(67200))), scale = tensor<fp16, [128]>(BLOBFILE(path = tensor<string, []>("@model_path/weights/weight.bin"), offset = tensor<uint64, []>(116992))), zero_point = tensor<int8, [128]>(BLOBFILE(path = tensor<string, []>("@model_path/weights/weight.bin"), offset = tensor<uint64, []>(116800)))];
            tensor<fp16, [128]> encoder_layers_0_bias_to_fp16 = const()[name = tensor<string, []>("encoder_layers_0_bias_to_fp16"), val = tensor<fp16, [128]>(BLOBFILE(path = tensor<string, []>("@model_path/weights/weight.bin"), offset = tensor<uint64, []>(117312)))];
            tensor<fp16, [1, 128, 3]> input_3_cast_fp16 = conv(bias = encoder_layers_0_bias_to_fp16, dilations = input_3_dilations_0, groups = input_3_groups_0, pad = input_3_pad_0, pad_type = input_3_pad_type_0, strides = input_3_strides_0, weight = encoder_layers_0_weight_to_fp16_quantized, x = input_1_cast_fp16)[name = tensor<string, []>("input_3_cast_fp16")];
            tensor<fp16, [1, 128, 3]> x_5_cast_fp16 = relu(x = input_3_cast_fp16)[name = tensor<string, []>("x_5_cast_fp16")];
            tensor<fp16, []> const_0_to_fp16 = const()[name = tensor<string, []>("const_0_to_fp16"), val = tensor<fp16, []>(-inf)];
            tensor<fp16, []> var_233_to_fp16 = const()[name = tensor<string, []>("op_233_to_fp16"), val = tensor<fp16, []>(0x1.388p+13)];
            tensor<fp16, [1, 128, 3]> clip_0_cast_fp16 = clip(alpha = const_0_to_fp16, beta = var_233_to_fp16, x = x_5_cast_fp16)[name = tensor<string, []>("clip_0_cast_fp16")];
            tensor<string, []> input_7_pad_type_0 = const()[name = tensor<string, []>("input_7_pad_type_0"), val = tensor<string, []>("custom")];
            tensor<int32, [2]> input_7_pad_0 = const()[name = tensor<string, []>("input_7_pad_0"), val = tensor<int32, [2]>([1, 1])];
            tensor<int32, [1]> input_7_strides_0 = const()[name = tensor<string, []>("input_7_strides_0"), val = tensor<int32, [1]>([1])];
            tensor<int32, [1]> input_7_dilations_0 = const()[name = tensor<string, []>("input_7_dilations_0"), val = tensor<int32, [1]>([1])];
            tensor<int32, []> input_7_groups_0 = const()[name = tensor<string, []>("input_7_groups_0"), val = tensor<int32, []>(1)];
            tensor<fp16, [64, 128, 3]> encoder_layers_2_weight_to_fp16_quantized = constexpr_affine_dequantize()[axis = tensor<int32, []>(0), name = tensor<string, []>("encoder_layers_2_weight_to_fp16_quantized"), quantized_data = tensor<int8, [64, 128, 3]>(BLOBFILE(path = tensor<string, []>("@model_path/weights/weight.bin"), offset = tensor<uint64, []>(117632))), scale = tensor<fp16, [64]>(BLOBFILE(path = tensor<string, []>("@model_path/weights/weight.bin"), offset = tensor<uint64, []>(142400))), zero_point = tensor<int8, [64]>(BLOBFILE(path = tensor<string, []>("@model_path/weights/weight.bin"), offset = tensor<uint64, []>(142272)))];
            tensor<fp16, [64]> encoder_layers_2_bias_to_fp16 = const()[name = tensor<string, []>("encoder_layers_2_bias_to_fp16"), val = tensor<fp16, [64]>(BLOBFILE(path = tensor<string, []>("@model_path/weights/weight.bin"), offset = tensor<uint64, []>(142592)))];
            tensor<fp16, [1, 64, 3]> input_7_cast_fp16 = conv(bias = encoder_layers_2_bias_to_fp16, dilations = input_7_dilations_0, groups = input_7_groups_0, pad = input_7_pad_0, pad_type = input_7_pad_type_0, strides = input_7_strides_0, weight = encoder_layers_2_weight_to_fp16_quantized, x = clip_0_cast_fp16)[name = tensor<string, []>("input_7_cast_fp16")];
            tensor<fp16, [1, 64, 3]> x_7_cast_fp16 = relu(x = input_7_cast_fp16)[name = tensor<string, []>("x_7_cast_fp16")];
            tensor<fp16, []> const_1_to_fp16 = const()[name = tensor<string, []>("const_1_to_fp16"), val = tensor<fp16, []>(-inf)];
            tensor<fp16, [1, 64, 3]> clip_1_cast_fp16 = clip(alpha = const_1_to_fp16, beta = var_233_to_fp16, x = x_7_cast_fp16)[name = tensor<string, []>("clip_1_cast_fp16")];
            tensor<string, []> input_11_pad_type_0 = const()[name = tensor<string, []>("input_11_pad_type_0"), val = tensor<string, []>("custom")];
            tensor<int32, [2]> input_11_pad_0 = const()[name = tensor<string, []>("input_11_pad_0"), val = tensor<int32, [2]>([1, 1])];
            tensor<int32, [1]> input_11_strides_0 = const()[name = tensor<string, []>("input_11_strides_0"), val = tensor<int32, [1]>([1])];
            tensor<int32, [1]> input_11_dilations_0 = const()[name = tensor<string, []>("input_11_dilations_0"), val = tensor<int32, [1]>([1])];
            tensor<int32, []> input_11_groups_0 = const()[name = tensor<string, []>("input_11_groups_0"), val = tensor<int32, []>(1)];
            tensor<fp16, [64, 64, 3]> encoder_layers_4_weight_to_fp16_quantized = constexpr_affine_dequantize()[axis = tensor<int32, []>(0), name = tensor<string, []>("encoder_layers_4_weight_to_fp16_quantized"), quantized_data = tensor<int8, [64, 64, 3]>(BLOBFILE(path = tensor<string, []>("@model_path/weights/weight.bin"), offset = tensor<uint64, []>(142784))), scale = tensor<fp16, [64]>(BLOBFILE(path = tensor<string, []>("@model_path/weights/weight.bin"), offset = tensor<uint64, []>(155264))), zero_point = tensor<int8, [64]>(BLOBFILE(path = tensor<string, []>("@model_path/weights/weight.bin"), offset = tensor<uint64, []>(155136)))];
            tensor<fp16, [64]> encoder_layers_4_bias_to_fp16 = const()[name = tensor<string, []>("encoder_layers_4_bias_to_fp16"), val = tensor<fp16, [64]>(BLOBFILE(path = tensor<string, []>("@model_path/weights/weight.bin"), offset = tensor<uint64, []>(155456)))];
            tensor<fp16, [1, 64, 3]> input_11_cast_fp16 = conv(bias = encoder_layers_4_bias_to_fp16, dilations = input_11_dilations_0, groups = input_11_groups_0, pad = input_11_pad_0, pad_type = input_11_pad_type_0, strides = input_11_strides_0, weight = encoder_layers_4_weight_to_fp16_quantized, x = clip_1_cast_fp16)[name = tensor<string, []>("input_11_cast_fp16")];
            tensor<fp16, [1, 64, 3]> x_9_cast_fp16 = relu(x = input_11_cast_fp16)[name = tensor<string, []>("x_9_cast_fp16")];
            tensor<fp16, []> const_2_to_fp16 = const()[name = tensor<string, []>("const_2_to_fp16"), val = tensor<fp16, []>(-inf)];
            tensor<fp16, [1, 64, 3]> clip_2_cast_fp16 = clip(alpha = const_2_to_fp16, beta = var_233_to_fp16, x = x_9_cast_fp16)[name = tensor<string, []>("clip_2_cast_fp16")];
            tensor<string, []> input_15_pad_type_0 = const()[name = tensor<string, []>("input_15_pad_type_0"), val = tensor<string, []>("custom")];
            tensor<int32, [2]> input_15_pad_0 = const()[name = tensor<string, []>("input_15_pad_0"), val = tensor<int32, [2]>([1, 1])];
            tensor<int32, [1]> input_15_strides_0 = const()[name = tensor<string, []>("input_15_strides_0"), val = tensor<int32, [1]>([1])];
            tensor<int32, [1]> input_15_dilations_0 = const()[name = tensor<string, []>("input_15_dilations_0"), val = tensor<int32, [1]>([1])];
            tensor<int32, []> input_15_groups_0 = const()[name = tensor<string, []>("input_15_groups_0"), val = tensor<int32, []>(1)];
            tensor<fp16, [128, 64, 3]> encoder_layers_6_weight_to_fp16_quantized = constexpr_affine_dequantize()[axis = tensor<int32, []>(0), name = tensor<string, []>("encoder_layers_6_weight_to_fp16_quantized"), quantized_data = tensor<int8, [128, 64, 3]>(BLOBFILE(path = tensor<string, []>("@model_path/weights/weight.bin"), offset = tensor<uint64, []>(155648))), scale = tensor<fp16, [128]>(BLOBFILE(path = tensor<string, []>("@model_path/weights/weight.bin"), offset = tensor<uint64, []>(180288))), zero_point = tensor<int8, [128]>(BLOBFILE(path = tensor<string, []>("@model_path/weights/weight.bin"), offset = tensor<uint64, []>(116800)))];
            tensor<fp16, [128]> encoder_layers_6_bias_to_fp16 = const()[name = tensor<string, []>("encoder_layers_6_bias_to_fp16"), val = tensor<fp16, [128]>(BLOBFILE(path = tensor<string, []>("@model_path/weights/weight.bin"), offset = tensor<uint64, []>(180608)))];
            tensor<fp16, [1, 128, 3]> input_15_cast_fp16 = conv(bias = encoder_layers_6_bias_to_fp16, dilations = input_15_dilations_0, groups = input_15_groups_0, pad = input_15_pad_0, pad_type = input_15_pad_type_0, strides = input_15_strides_0, weight = encoder_layers_6_weight_to_fp16_quantized, x = clip_2_cast_fp16)[name = tensor<string, []>("input_15_cast_fp16")];
            tensor<fp16, [1, 128, 3]> x_11_cast_fp16 = relu(x = input_15_cast_fp16)[name = tensor<string, []>("x_11_cast_fp16")];
            tensor<fp16, []> const_3_to_fp16 = const()[name = tensor<string, []>("const_3_to_fp16"), val = tensor<fp16, []>(-inf)];
            tensor<fp16, [1, 128, 3]> clip_3_cast_fp16 = clip(alpha = const_3_to_fp16, beta = var_233_to_fp16, x = x_11_cast_fp16)[name = tensor<string, []>("clip_3_cast_fp16")];
            tensor<int32, [3]> transpose_0_perm_0 = const()[name = tensor<string, []>("transpose_0_perm_0"), val = tensor<int32, [3]>([2, 0, 1])];
            tensor<string, []> transpose_0_cast_fp16_to_fp32_dtype_0 = const()[name = tensor<string, []>("transpose_0_cast_fp16_to_fp32_dtype_0"), val = tensor<string, []>("fp32")];
            tensor<int32, [1]> hx_1_axes_0 = const()[name = tensor<string, []>("hx_1_axes_0"), val = tensor<int32, [1]>([0])];
            tensor<string, []> hidden_state_to_fp16_dtype_0 = const()[name = tensor<string, []>("hidden_state_to_fp16_dtype_0"), val = tensor<string, []>("fp16")];
            tensor<fp16, [1, 128]> hidden_state_to_fp16 = cast(dtype = hidden_state_to_fp16_dtype_0, x = hidden_state)[name = tensor<string, []>("cast_52")];
            tensor<fp16, [1, 1, 128]> hx_1_cast_fp16 = expand_dims(axes = hx_1_axes_0, x = hidden_state_to_fp16)[name = tensor<string, []>("hx_1_cast_fp16")];
            tensor<int32, [1]> hx_3_axes_0 = const()[name = tensor<string, []>("hx_3_axes_0"), val = tensor<int32, [1]>([0])];
            tensor<string, []> cell_state_to_fp16_dtype_0 = const()[name = tensor<string, []>("cell_state_to_fp16_dtype_0"), val = tensor<string, []>("fp16")];
            tensor<fp16, [1, 128]> cell_state_to_fp16 = cast(dtype = cell_state_to_fp16_dtype_0, x = cell_state)[name = tensor<string, []>("cast_51")];
            tensor<fp16, [1, 1, 128]> hx_3_cast_fp16 = expand_dims(axes = hx_3_axes_0, x = cell_state_to_fp16)[name = tensor<string, []>("hx_3_cast_fp16")];
            tensor<fp32, [512]> concat_0 = const()[name = tensor<string, []>("concat_0"), val = tensor<fp32, [512]>(BLOBFILE(path = tensor<string, []>("@model_path/weights/weight.bin"), offset = tensor<uint64, []>(180928)))];
            tensor<fp32, [512, 128]> concat_1_quantized = constexpr_affine_dequantize()[axis = tensor<int32, []>(0), name = tensor<string, []>("concat_1_quantized"), quantized_data = tensor<int8, [512, 128]>(BLOBFILE(path = tensor<string, []>("@model_path/weights/weight.bin"), offset = tensor<uint64, []>(183040))), scale = tensor<fp32, [512]>(BLOBFILE(path = tensor<string, []>("@model_path/weights/weight.bin"), offset = tensor<uint64, []>(249216))), zero_point = tensor<int8, [512]>(BLOBFILE(path = tensor<string, []>("@model_path/weights/weight.bin"), offset = tensor<uint64, []>(248640)))];
            tensor<fp32, [512, 128]> concat_2_quantized = constexpr_affine_dequantize()[axis = tensor<int32, []>(0), name = tensor<string, []>("concat_2_quantized"), quantized_data = tensor<int8, [512, 128]>(BLOBFILE(path = tensor<string, []>("@model_path/weights/weight.bin"), offset = tensor<uint64, []>(251328))), scale = tensor<fp32, [512]>(BLOBFILE(path = tensor<string, []>("@model_path/weights/weight.bin"), offset = tensor<uint64, []>(316928))), zero_point = tensor<int8, [512]>(BLOBFILE(path = tensor<string, []>("@model_path/weights/weight.bin"), offset = tensor<uint64, []>(248640)))];
            tensor<int32, [1]> lstm_out_1_batch_first_lstm_h0_squeeze_axes_0 = const()[name = tensor<string, []>("lstm_out_1_batch_first_lstm_h0_squeeze_axes_0"), val = tensor<int32, [1]>([0])];
            tensor<fp16, [1, 128]> lstm_out_1_batch_first_lstm_h0_squeeze_cast_fp16 = squeeze(axes = lstm_out_1_batch_first_lstm_h0_squeeze_axes_0, x = hx_1_cast_fp16)[name = tensor<string, []>("lstm_out_1_batch_first_lstm_h0_squeeze_cast_fp16")];
            tensor<string, []> lstm_out_1_batch_first_lstm_h0_squeeze_cast_fp16_to_fp32_dtype_0 = const()[name = tensor<string, []>("lstm_out_1_batch_first_lstm_h0_squeeze_cast_fp16_to_fp32_dtype_0"), val = tensor<string, []>("fp32")];
            tensor<int32, [1]> lstm_out_1_batch_first_lstm_c0_squeeze_axes_0 = const()[name = tensor<string, []>("lstm_out_1_batch_first_lstm_c0_squeeze_axes_0"), val = tensor<int32, [1]>([0])];
            tensor<fp16, [1, 128]> lstm_out_1_batch_first_lstm_c0_squeeze_cast_fp16 = squeeze(axes = lstm_out_1_batch_first_lstm_c0_squeeze_axes_0, x = hx_3_cast_fp16)[name = tensor<string, []>("lstm_out_1_batch_first_lstm_c0_squeeze_cast_fp16")];
            tensor<string, []> lstm_out_1_batch_first_lstm_c0_squeeze_cast_fp16_to_fp32_dtype_0 = const()[name = tensor<string, []>("lstm_out_1_batch_first_lstm_c0_squeeze_cast_fp16_to_fp32_dtype_0"), val = tensor<string, []>("fp32")];
            tensor<string, []> lstm_out_1_batch_first_direction_0 = const()[name = tensor<string, []>("lstm_out_1_batch_first_direction_0"), val = tensor<string, []>("forward")];
            tensor<bool, []> lstm_out_1_batch_first_output_sequence_0 = const()[name = tensor<string, []>("lstm_out_1_batch_first_output_sequence_0"), val = tensor<bool, []>(true)];
            tensor<string, []> lstm_out_1_batch_first_recurrent_activation_0 = const()[name = tensor<string, []>("lstm_out_1_batch_first_recurrent_activation_0"), val = tensor<string, []>("sigmoid")];
            tensor<string, []> lstm_out_1_batch_first_cell_activation_0 = const()[name = tensor<string, []>("lstm_out_1_batch_first_cell_activation_0"), val = tensor<string, []>("tanh")];
            tensor<string, []> lstm_out_1_batch_first_activation_0 = const()[name = tensor<string, []>("lstm_out_1_batch_first_activation_0"), val = tensor<string, []>("tanh")];
            tensor<fp16, [3, 1, 128]> transpose_0_cast_fp16 = transpose(perm = transpose_0_perm_0, x = clip_3_cast_fp16)[name = tensor<string, []>("transpose_15")];
            tensor<fp32, [3, 1, 128]> transpose_0_cast_fp16_to_fp32 = cast(dtype = transpose_0_cast_fp16_to_fp32_dtype_0, x = transpose_0_cast_fp16)[name = tensor<string, []>("cast_48")];
            tensor<fp32, [1, 128]> lstm_out_1_batch_first_lstm_h0_squeeze_cast_fp16_to_fp32 = cast(dtype = lstm_out_1_batch_first_lstm_h0_squeeze_cast_fp16_to_fp32_dtype_0, x = lstm_out_1_batch_first_lstm_h0_squeeze_cast_fp16)[name = tensor<string, []>("cast_49")];
            tensor<fp32, [1, 128]> lstm_out_1_batch_first_lstm_c0_squeeze_cast_fp16_to_fp32 = cast(dtype = lstm_out_1_batch_first_lstm_c0_squeeze_cast_fp16_to_fp32_dtype_0, x = lstm_out_1_batch_first_lstm_c0_squeeze_cast_fp16)[name = tensor<string, []>("cast_50")];
            tensor<fp32, [3, 1, 128]> lstm_out_1_batch_first_0, tensor<fp32, [1, 128]> lstm_out_1_batch_first_1, tensor<fp32, [1, 128]> lstm_out_1_batch_first_2 = lstm(activation = lstm_out_1_batch_first_activation_0, bias = concat_0, cell_activation = lstm_out_1_batch_first_cell_activation_0, direction = lstm_out_1_batch_first_direction_0, initial_c = lstm_out_1_batch_first_lstm_c0_squeeze_cast_fp16_to_fp32, initial_h = lstm_out_1_batch_first_lstm_h0_squeeze_cast_fp16_to_fp32, output_sequence = lstm_out_1_batch_first_output_sequence_0, recurrent_activation = lstm_out_1_batch_first_recurrent_activation_0, weight_hh = concat_2_quantized, weight_ih = concat_1_quantized, x = transpose_0_cast_fp16_to_fp32)[name = tensor<string, []>("lstm_out_1_batch_first")];
            tensor<int32, [3]> transpose_1_perm_0 = const()[name = tensor<string, []>("transpose_1_perm_0"), val = tensor<int32, [3]>([1, 2, 0])];
            tensor<string, []> lstm_out_1_batch_first_0_to_fp16_dtype_0 = const()[name = tensor<string, []>("lstm_out_1_batch_first_0_to_fp16_dtype_0"), val = tensor<string, []>("fp16")];
            tensor<int32, [1]> hn_1_axes_0 = const()[name = tensor<string, []>("hn_1_axes_0"), val = tensor<int32, [1]>([0])];
            tensor<string, []> lstm_out_1_batch_first_1_to_fp16_dtype_0 = const()[name = tensor<string, []>("lstm_out_1_batch_first_1_to_fp16_dtype_0"), val = tensor<string, []>("fp16")];
            tensor<fp16, [1, 128]> lstm_out_1_batch_first_1_to_fp16 = cast(dtype = lstm_out_1_batch_first_1_to_fp16_dtype_0, x = lstm_out_1_batch_first_1)[name = tensor<string, []>("cast_47")];
            tensor<fp16, [1, 1, 128]> hn_1_cast_fp16 = expand_dims(axes = hn_1_axes_0, x = lstm_out_1_batch_first_1_to_fp16)[name = tensor<string, []>("hn_1_cast_fp16")];
            tensor<int32, [1]> cn_1_axes_0 = const()[name = tensor<string, []>("cn_1_axes_0"), val = tensor<int32, [1]>([0])];
            tensor<string, []> lstm_out_1_batch_first_2_to_fp16_dtype_0 = const()[name = tensor<string, []>("lstm_out_1_batch_first_2_to_fp16_dtype_0"), val = tensor<string, []>("fp16")];
            tensor<fp16, [1, 128]> lstm_out_1_batch_first_2_to_fp16 = cast(dtype = lstm_out_1_batch_first_2_to_fp16_dtype_0, x = lstm_out_1_batch_first_2)[name = tensor<string, []>("cast_46")];
            tensor<fp16, [1, 1, 128]> cn_1_cast_fp16 = expand_dims(axes = cn_1_axes_0, x = lstm_out_1_batch_first_2_to_fp16)[name = tensor<string, []>("cn_1_cast_fp16")];
            tensor<string, []> input_21_pad_type_0 = const()[name = tensor<string, []>("input_21_pad_type_0"), val = tensor<string, []>("valid")];
            tensor<int32, [1]> input_21_strides_0 = const()[name = tensor<string, []>("input_21_strides_0"), val = tensor<int32, [1]>([1])];
            tensor<int32, [2]> input_21_pad_0 = const()[name = tensor<string, []>("input_21_pad_0"), val = tensor<int32, [2]>([0, 0])];
            tensor<int32, [1]> input_21_dilations_0 = const()[name = tensor<string, []>("input_21_dilations_0"), val = tensor<int32, [1]>([1])];
            tensor<int32, []> input_21_groups_0 = const()[name = tensor<string, []>("input_21_groups_0"), val = tensor<int32, []>(1)];
            tensor<fp16, [1, 128, 1]> decoder_final_conv_weight_to_fp16 = const()[name = tensor<string, []>("decoder_final_conv_weight_to_fp16"), val = tensor<fp16, [1, 128, 1]>(BLOBFILE(path = tensor<string, []>("@model_path/weights/weight.bin"), offset = tensor<uint64, []>(319040)))];
            tensor<fp16, [1]> decoder_final_conv_bias_to_fp16 = const()[name = tensor<string, []>("decoder_final_conv_bias_to_fp16"), val = tensor<fp16, [1]>([0x1.dfp-5])];
            tensor<fp16, [3, 1, 128]> lstm_out_1_batch_first_0_to_fp16 = cast(dtype = lstm_out_1_batch_first_0_to_fp16_dtype_0, x = lstm_out_1_batch_first_0)[name = tensor<string, []>("cast_45")];
            tensor<fp16, [1, 128, 3]> transpose_1_cast_fp16 = transpose(perm = transpose_1_perm_0, x = lstm_out_1_batch_first_0_to_fp16)[name = tensor<string, []>("transpose_14")];
            tensor<fp16, [1, 1, 3]> input_21_cast_fp16 = conv(bias = decoder_final_conv_bias_to_fp16, dilations = input_21_dilations_0, groups = input_21_groups_0, pad = input_21_pad_0, pad_type = input_21_pad_type_0, strides = input_21_strides_0, weight = decoder_final_conv_weight_to_fp16, x = transpose_1_cast_fp16)[name = tensor<string, []>("input_21_cast_fp16")];
            tensor<fp16, [1, 1, 3]> out_1_cast_fp16 = sigmoid(x = input_21_cast_fp16)[name = tensor<string, []>("out_1_cast_fp16")];
            tensor<int32, [1]> var_318_axes_0 = const()[name = tensor<string, []>("op_318_axes_0"), val = tensor<int32, [1]>([2])];
            tensor<bool, []> var_318_keep_dims_0 = const()[name = tensor<string, []>("op_318_keep_dims_0"), val = tensor<bool, []>(true)];
            tensor<fp16, [1, 1, 1]> var_318_cast_fp16 = reduce_mean(axes = var_318_axes_0, keep_dims = var_318_keep_dims_0, x = out_1_cast_fp16)[name = tensor<string, []>("op_318_cast_fp16")];
            tensor<int32, [1]> x_17_axes_0 = const()[name = tensor<string, []>("x_17_axes_0"), val = tensor<int32, [1]>([1])];
            tensor<fp16, [1, 1, 576]> x_17_cast_fp16 = expand_dims(axes = x_17_axes_0, x = x_15_cast_fp16)[name = tensor<string, []>("x_17_cast_fp16")];
            tensor<string, []> stft_out_3_pad_type_0 = const()[name = tensor<string, []>("stft_out_3_pad_type_0"), val = tensor<string, []>("custom")];
            tensor<int32, [2]> stft_out_3_pad_0 = const()[name = tensor<string, []>("stft_out_3_pad_0"), val = tensor<int32, [2]>([128, 128])];
            tensor<int32, [1]> stft_out_3_strides_0 = const()[name = tensor<string, []>("stft_out_3_strides_0"), val = tensor<int32, [1]>([256])];
            tensor<int32, [1]> stft_out_3_dilations_0 = const()[name = tensor<string, []>("stft_out_3_dilations_0"), val = tensor<int32, [1]>([1])];
            tensor<int32, []> stft_out_3_groups_0 = const()[name = tensor<string, []>("stft_out_3_groups_0"), val = tensor<int32, []>(1)];
            tensor<fp16, [1, 258, 3]> stft_out_3_cast_fp16 = conv(dilations = stft_out_3_dilations_0, groups = stft_out_3_groups_0, pad = stft_out_3_pad_0, pad_type = stft_out_3_pad_type_0, strides = stft_out_3_strides_0, weight = stft_forward_basis_to_fp16_quantized, x = x_17_cast_fp16)[name = tensor<string, []>("stft_out_3_cast_fp16")];
            tensor<int32, [3]> var_343_begin_0 = const()[name = tensor<string, []>("op_343_begin_0"), val = tensor<int32, [3]>([0, 0, 0])];
            tensor<int32, [3]> var_343_end_0 = const()[name = tensor<string, []>("op_343_end_0"), val = tensor<int32, [3]>([1, 129, 3])];
            tensor<bool, [3]> var_343_end_mask_0 = const()[name = tensor<string, []>("op_343_end_mask_0"), val = tensor<bool, [3]>([true, false, true])];
            tensor<fp16, [1, 129, 3]> var_343_cast_fp16 = slice_by_index(begin = var_343_begin_0, end = var_343_end_0, end_mask = var_343_end_mask_0, x = stft_out_3_cast_fp16)[name = tensor<string, []>("op_343_cast_fp16")];
            tensor<int32, [3]> var_346_begin_0 = const()[name = tensor<string, []>("op_346_begin_0"), val = tensor<int32, [3]>([0, 129, 0])];
            tensor<int32, [3]> var_346_end_0 = const()[name = tensor<string, []>("op_346_end_0"), val = tensor<int32, [3]>([1, 258, 3])];
            tensor<bool, [3]> var_346_end_mask_0 = const()[name = tensor<string, []>("op_346_end_mask_0"), val = tensor<bool, [3]>([true, true, true])];
            tensor<fp16, [1, 129, 3]> var_346_cast_fp16 = slice_by_index(begin = var_346_begin_0, end = var_346_end_0, end_mask = var_346_end_mask_0, x = stft_out_3_cast_fp16)[name = tensor<string, []>("op_346_cast_fp16")];
            tensor<fp16, []> var_325_promoted_to_fp16 = const()[name = tensor<string, []>("op_325_promoted_to_fp16"), val = tensor<fp16, []>(0x1p+1)];
            tensor<fp16, [1, 129, 3]> var_348_cast_fp16 = pow(x = var_343_cast_fp16, y = var_325_promoted_to_fp16)[name = tensor<string, []>("op_348_cast_fp16")];
            tensor<fp16, []> var_325_promoted_1_to_fp16 = const()[name = tensor<string, []>("op_325_promoted_1_to_fp16"), val = tensor<fp16, []>(0x1p+1)];
            tensor<fp16, [1, 129, 3]> var_349_cast_fp16 = pow(x = var_346_cast_fp16, y = var_325_promoted_1_to_fp16)[name = tensor<string, []>("op_349_cast_fp16")];
            tensor<fp16, [1, 129, 3]> var_350_cast_fp16 = add(x = var_348_cast_fp16, y = var_349_cast_fp16)[name = tensor<string, []>("op_350_cast_fp16")];
            tensor<fp16, []> var_351_to_fp16 = const()[name = tensor<string, []>("op_351_to_fp16"), val = tensor<fp16, []>(0x1p-24)];
            tensor<fp16, [1, 129, 3]> var_352_cast_fp16 = add(x = var_350_cast_fp16, y = var_351_to_fp16)[name = tensor<string, []>("op_352_cast_fp16")];
            tensor<fp16, [1, 129, 3]> magnitude_3_cast_fp16 = sqrt(x = var_352_cast_fp16)[name = tensor<string, []>("magnitude_3_cast_fp16")];
            tensor<fp16, []> var_354_to_fp16 = const()[name = tensor<string, []>("op_354_to_fp16"), val = tensor<fp16, []>(0x1p-24)];
            tensor<fp16, [1, 129, 3]> var_355_cast_fp16 = add(x = magnitude_3_cast_fp16, y = var_354_to_fp16)[name = tensor<string, []>("op_355_cast_fp16")];
            tensor<fp16, []> input_23_epsilon_0_to_fp16 = const()[name = tensor<string, []>("input_23_epsilon_0_to_fp16"), val = tensor<fp16, []>(0x0p+0)];
            tensor<fp16, [1, 129, 3]> input_23_cast_fp16 = log(epsilon = input_23_epsilon_0_to_fp16, x = var_355_cast_fp16)[name = tensor<string, []>("input_23_cast_fp16")];
            tensor<string, []> input_25_pad_type_0 = const()[name = tensor<string, []>("input_25_pad_type_0"), val = tensor<string, []>("custom")];
            tensor<int32, [2]> input_25_pad_0 = const()[name = tensor<string, []>("input_25_pad_0"), val = tensor<int32, [2]>([1, 1])];
            tensor<int32, [1]> input_25_strides_0 = const()[name = tensor<string, []>("input_25_strides_0"), val = tensor<int32, [1]>([1])];
            tensor<int32, [1]> input_25_dilations_0 = const()[name = tensor<string, []>("input_25_dilations_0"), val = tensor<int32, [1]>([1])];
            tensor<int32, []> input_25_groups_0 = const()[name = tensor<string, []>("input_25_groups_0"), val = tensor<int32, []>(1)];
            tensor<fp16, [1, 128, 3]> input_25_cast_fp16 = conv(bias = encoder_layers_0_bias_to_fp16, dilations = input_25_dilations_0, groups = input_25_groups_0, pad = input_25_pad_0, pad_type = input_25_pad_type_0, strides = input_25_strides_0, weight = encoder_layers_0_weight_to_fp16_quantized, x = input_23_cast_fp16)[name = tensor<string, []>("input_25_cast_fp16")];
            tensor<fp16, [1, 128, 3]> x_19_cast_fp16 = relu(x = input_25_cast_fp16)[name = tensor<string, []>("x_19_cast_fp16")];
            tensor<fp16, []> const_4_to_fp16 = const()[name = tensor<string, []>("const_4_to_fp16"), val = tensor<fp16, []>(-inf)];
            tensor<fp16, []> var_357_to_fp16 = const()[name = tensor<string, []>("op_357_to_fp16"), val = tensor<fp16, []>(0x1.388p+13)];
            tensor<fp16, [1, 128, 3]> clip_4_cast_fp16 = clip(alpha = const_4_to_fp16, beta = var_357_to_fp16, x = x_19_cast_fp16)[name = tensor<string, []>("clip_4_cast_fp16")];
            tensor<string, []> input_29_pad_type_0 = const()[name = tensor<string, []>("input_29_pad_type_0"), val = tensor<string, []>("custom")];
            tensor<int32, [2]> input_29_pad_0 = const()[name = tensor<string, []>("input_29_pad_0"), val = tensor<int32, [2]>([1, 1])];
            tensor<int32, [1]> input_29_strides_0 = const()[name = tensor<string, []>("input_29_strides_0"), val = tensor<int32, [1]>([1])];
            tensor<int32, [1]> input_29_dilations_0 = const()[name = tensor<string, []>("input_29_dilations_0"), val = tensor<int32, [1]>([1])];
            tensor<int32, []> input_29_groups_0 = const()[name = tensor<string, []>("input_29_groups_0"), val = tensor<int32, []>(1)];
            tensor<fp16, [1, 64, 3]> input_29_cast_fp16 = conv(bias = encoder_layers_2_bias_to_fp16, dilations = input_29_dilations_0, groups = input_29_groups_0, pad = input_29_pad_0, pad_type = input_29_pad_type_0, strides = input_29_strides_0, weight = encoder_layers_2_weight_to_fp16_quantized, x = clip_4_cast_fp16)[name = tensor<string, []>("input_29_cast_fp16")];
            tensor<fp16, [1, 64, 3]> x_21_cast_fp16 = relu(x = input_29_cast_fp16)[name = tensor<string, []>("x_21_cast_fp16")];
            tensor<fp16, []> const_5_to_fp16 = const()[name = tensor<string, []>("const_5_to_fp16"), val = tensor<fp16, []>(-inf)];
            tensor<fp16, [1, 64, 3]> clip_5_cast_fp16 = clip(alpha = const_5_to_fp16, beta = var_357_to_fp16, x = x_21_cast_fp16)[name = tensor<string, []>("clip_5_cast_fp16")];
            tensor<string, []> input_33_pad_type_0 = const()[name = tensor<string, []>("input_33_pad_type_0"), val = tensor<string, []>("custom")];
            tensor<int32, [2]> input_33_pad_0 = const()[name = tensor<string, []>("input_33_pad_0"), val = tensor<int32, [2]>([1, 1])];
            tensor<int32, [1]> input_33_strides_0 = const()[name = tensor<string, []>("input_33_strides_0"), val = tensor<int32, [1]>([1])];
            tensor<int32, [1]> input_33_dilations_0 = const()[name = tensor<string, []>("input_33_dilations_0"), val = tensor<int32, [1]>([1])];
            tensor<int32, []> input_33_groups_0 = const()[name = tensor<string, []>("input_33_groups_0"), val = tensor<int32, []>(1)];
            tensor<fp16, [1, 64, 3]> input_33_cast_fp16 = conv(bias = encoder_layers_4_bias_to_fp16, dilations = input_33_dilations_0, groups = input_33_groups_0, pad = input_33_pad_0, pad_type = input_33_pad_type_0, strides = input_33_strides_0, weight = encoder_layers_4_weight_to_fp16_quantized, x = clip_5_cast_fp16)[name = tensor<string, []>("input_33_cast_fp16")];
            tensor<fp16, [1, 64, 3]> x_23_cast_fp16 = relu(x = input_33_cast_fp16)[name = tensor<string, []>("x_23_cast_fp16")];
            tensor<fp16, []> const_6_to_fp16 = const()[name = tensor<string, []>("const_6_to_fp16"), val = tensor<fp16, []>(-inf)];
            tensor<fp16, [1, 64, 3]> clip_6_cast_fp16 = clip(alpha = const_6_to_fp16, beta = var_357_to_fp16, x = x_23_cast_fp16)[name = tensor<string, []>("clip_6_cast_fp16")];
            tensor<string, []> input_37_pad_type_0 = const()[name = tensor<string, []>("input_37_pad_type_0"), val = tensor<string, []>("custom")];
            tensor<int32, [2]> input_37_pad_0 = const()[name = tensor<string, []>("input_37_pad_0"), val = tensor<int32, [2]>([1, 1])];
            tensor<int32, [1]> input_37_strides_0 = const()[name = tensor<string, []>("input_37_strides_0"), val = tensor<int32, [1]>([1])];
            tensor<int32, [1]> input_37_dilations_0 = const()[name = tensor<string, []>("input_37_dilations_0"), val = tensor<int32, [1]>([1])];
            tensor<int32, []> input_37_groups_0 = const()[name = tensor<string, []>("input_37_groups_0"), val = tensor<int32, []>(1)];
            tensor<fp16, [1, 128, 3]> input_37_cast_fp16 = conv(bias = encoder_layers_6_bias_to_fp16, dilations = input_37_dilations_0, groups = input_37_groups_0, pad = input_37_pad_0, pad_type = input_37_pad_type_0, strides = input_37_strides_0, weight = encoder_layers_6_weight_to_fp16_quantized, x = clip_6_cast_fp16)[name = tensor<string, []>("input_37_cast_fp16")];
            tensor<fp16, [1, 128, 3]> x_25_cast_fp16 = relu(x = input_37_cast_fp16)[name = tensor<string, []>("x_25_cast_fp16")];
            tensor<fp16, []> const_7_to_fp16 = const()[name = tensor<string, []>("const_7_to_fp16"), val = tensor<fp16, []>(-inf)];
            tensor<fp16, [1, 128, 3]> clip_7_cast_fp16 = clip(alpha = const_7_to_fp16, beta = var_357_to_fp16, x = x_25_cast_fp16)[name = tensor<string, []>("clip_7_cast_fp16")];
            tensor<int32, [3]> transpose_2_perm_0 = const()[name = tensor<string, []>("transpose_2_perm_0"), val = tensor<int32, [3]>([2, 0, 1])];
            tensor<string, []> transpose_2_cast_fp16_to_fp32_dtype_0 = const()[name = tensor<string, []>("transpose_2_cast_fp16_to_fp32_dtype_0"), val = tensor<string, []>("fp32")];
            tensor<int32, [1]> lstm_out_3_batch_first_lstm_h0_squeeze_axes_0 = const()[name = tensor<string, []>("lstm_out_3_batch_first_lstm_h0_squeeze_axes_0"), val = tensor<int32, [1]>([0])];
            tensor<fp16, [1, 128]> lstm_out_3_batch_first_lstm_h0_squeeze_cast_fp16 = squeeze(axes = lstm_out_3_batch_first_lstm_h0_squeeze_axes_0, x = hn_1_cast_fp16)[name = tensor<string, []>("lstm_out_3_batch_first_lstm_h0_squeeze_cast_fp16")];
            tensor<string, []> lstm_out_3_batch_first_lstm_h0_squeeze_cast_fp16_to_fp32_dtype_0 = const()[name = tensor<string, []>("lstm_out_3_batch_first_lstm_h0_squeeze_cast_fp16_to_fp32_dtype_0"), val = tensor<string, []>("fp32")];
            tensor<int32, [1]> lstm_out_3_batch_first_lstm_c0_squeeze_axes_0 = const()[name = tensor<string, []>("lstm_out_3_batch_first_lstm_c0_squeeze_axes_0"), val = tensor<int32, [1]>([0])];
            tensor<fp16, [1, 128]> lstm_out_3_batch_first_lstm_c0_squeeze_cast_fp16 = squeeze(axes = lstm_out_3_batch_first_lstm_c0_squeeze_axes_0, x = cn_1_cast_fp16)[name = tensor<string, []>("lstm_out_3_batch_first_lstm_c0_squeeze_cast_fp16")];
            tensor<string, []> lstm_out_3_batch_first_lstm_c0_squeeze_cast_fp16_to_fp32_dtype_0 = const()[name = tensor<string, []>("lstm_out_3_batch_first_lstm_c0_squeeze_cast_fp16_to_fp32_dtype_0"), val = tensor<string, []>("fp32")];
            tensor<string, []> lstm_out_3_batch_first_direction_0 = const()[name = tensor<string, []>("lstm_out_3_batch_first_direction_0"), val = tensor<string, []>("forward")];
            tensor<bool, []> lstm_out_3_batch_first_output_sequence_0 = const()[name = tensor<string, []>("lstm_out_3_batch_first_output_sequence_0"), val = tensor<bool, []>(true)];
            tensor<string, []> lstm_out_3_batch_first_recurrent_activation_0 = const()[name = tensor<string, []>("lstm_out_3_batch_first_recurrent_activation_0"), val = tensor<string, []>("sigmoid")];
            tensor<string, []> lstm_out_3_batch_first_cell_activation_0 = const()[name = tensor<string, []>("lstm_out_3_batch_first_cell_activation_0"), val = tensor<string, []>("tanh")];
            tensor<string, []> lstm_out_3_batch_first_activation_0 = const()[name = tensor<string, []>("lstm_out_3_batch_first_activation_0"), val = tensor<string, []>("tanh")];
            tensor<fp16, [3, 1, 128]> transpose_2_cast_fp16 = transpose(perm = transpose_2_perm_0, x = clip_7_cast_fp16)[name = tensor<string, []>("transpose_13")];
            tensor<fp32, [3, 1, 128]> transpose_2_cast_fp16_to_fp32 = cast(dtype = transpose_2_cast_fp16_to_fp32_dtype_0, x = transpose_2_cast_fp16)[name = tensor<string, []>("cast_42")];
            tensor<fp32, [1, 128]> lstm_out_3_batch_first_lstm_h0_squeeze_cast_fp16_to_fp32 = cast(dtype = lstm_out_3_batch_first_lstm_h0_squeeze_cast_fp16_to_fp32_dtype_0, x = lstm_out_3_batch_first_lstm_h0_squeeze_cast_fp16)[name = tensor<string, []>("cast_43")];
            tensor<fp32, [1, 128]> lstm_out_3_batch_first_lstm_c0_squeeze_cast_fp16_to_fp32 = cast(dtype = lstm_out_3_batch_first_lstm_c0_squeeze_cast_fp16_to_fp32_dtype_0, x = lstm_out_3_batch_first_lstm_c0_squeeze_cast_fp16)[name = tensor<string, []>("cast_44")];
            tensor<fp32, [3, 1, 128]> lstm_out_3_batch_first_0, tensor<fp32, [1, 128]> lstm_out_3_batch_first_1, tensor<fp32, [1, 128]> lstm_out_3_batch_first_2 = lstm(activation = lstm_out_3_batch_first_activation_0, bias = concat_0, cell_activation = lstm_out_3_batch_first_cell_activation_0, direction = lstm_out_3_batch_first_direction_0, initial_c = lstm_out_3_batch_first_lstm_c0_squeeze_cast_fp16_to_fp32, initial_h = lstm_out_3_batch_first_lstm_h0_squeeze_cast_fp16_to_fp32, output_sequence = lstm_out_3_batch_first_output_sequence_0, recurrent_activation = lstm_out_3_batch_first_recurrent_activation_0, weight_hh = concat_2_quantized, weight_ih = concat_1_quantized, x = transpose_2_cast_fp16_to_fp32)[name = tensor<string, []>("lstm_out_3_batch_first")];
            tensor<int32, [3]> transpose_3_perm_0 = const()[name = tensor<string, []>("transpose_3_perm_0"), val = tensor<int32, [3]>([1, 2, 0])];
            tensor<string, []> lstm_out_3_batch_first_0_to_fp16_dtype_0 = const()[name = tensor<string, []>("lstm_out_3_batch_first_0_to_fp16_dtype_0"), val = tensor<string, []>("fp16")];
            tensor<int32, [1]> hn_3_axes_0 = const()[name = tensor<string, []>("hn_3_axes_0"), val = tensor<int32, [1]>([0])];
            tensor<string, []> lstm_out_3_batch_first_1_to_fp16_dtype_0 = const()[name = tensor<string, []>("lstm_out_3_batch_first_1_to_fp16_dtype_0"), val = tensor<string, []>("fp16")];
            tensor<fp16, [1, 128]> lstm_out_3_batch_first_1_to_fp16 = cast(dtype = lstm_out_3_batch_first_1_to_fp16_dtype_0, x = lstm_out_3_batch_first_1)[name = tensor<string, []>("cast_41")];
            tensor<fp16, [1, 1, 128]> hn_3_cast_fp16 = expand_dims(axes = hn_3_axes_0, x = lstm_out_3_batch_first_1_to_fp16)[name = tensor<string, []>("hn_3_cast_fp16")];
            tensor<int32, [1]> cn_3_axes_0 = const()[name = tensor<string, []>("cn_3_axes_0"), val = tensor<int32, [1]>([0])];
            tensor<string, []> lstm_out_3_batch_first_2_to_fp16_dtype_0 = const()[name = tensor<string, []>("lstm_out_3_batch_first_2_to_fp16_dtype_0"), val = tensor<string, []>("fp16")];
            tensor<fp16, [1, 128]> lstm_out_3_batch_first_2_to_fp16 = cast(dtype = lstm_out_3_batch_first_2_to_fp16_dtype_0, x = lstm_out_3_batch_first_2)[name = tensor<string, []>("cast_40")];
            tensor<fp16, [1, 1, 128]> cn_3_cast_fp16 = expand_dims(axes = cn_3_axes_0, x = lstm_out_3_batch_first_2_to_fp16)[name = tensor<string, []>("cn_3_cast_fp16")];
            tensor<string, []> input_43_pad_type_0 = const()[name = tensor<string, []>("input_43_pad_type_0"), val = tensor<string, []>("valid")];
            tensor<int32, [1]> input_43_strides_0 = const()[name = tensor<string, []>("input_43_strides_0"), val = tensor<int32, [1]>([1])];
            tensor<int32, [2]> input_43_pad_0 = const()[name = tensor<string, []>("input_43_pad_0"), val = tensor<int32, [2]>([0, 0])];
            tensor<int32, [1]> input_43_dilations_0 = const()[name = tensor<string, []>("input_43_dilations_0"), val = tensor<int32, [1]>([1])];
            tensor<int32, []> input_43_groups_0 = const()[name = tensor<string, []>("input_43_groups_0"), val = tensor<int32, []>(1)];
            tensor<fp16, [3, 1, 128]> lstm_out_3_batch_first_0_to_fp16 = cast(dtype = lstm_out_3_batch_first_0_to_fp16_dtype_0, x = lstm_out_3_batch_first_0)[name = tensor<string, []>("cast_39")];
            tensor<fp16, [1, 128, 3]> transpose_3_cast_fp16 = transpose(perm = transpose_3_perm_0, x = lstm_out_3_batch_first_0_to_fp16)[name = tensor<string, []>("transpose_12")];
            tensor<fp16, [1, 1, 3]> input_43_cast_fp16 = conv(bias = decoder_final_conv_bias_to_fp16, dilations = input_43_dilations_0, groups = input_43_groups_0, pad = input_43_pad_0, pad_type = input_43_pad_type_0, strides = input_43_strides_0, weight = decoder_final_conv_weight_to_fp16, x = transpose_3_cast_fp16)[name = tensor<string, []>("input_43_cast_fp16")];
            tensor<fp16, [1, 1, 3]> out_3_cast_fp16 = sigmoid(x = input_43_cast_fp16)[name = tensor<string, []>("out_3_cast_fp16")];
            tensor<int32, [1]> var_442_axes_0 = const()[name = tensor<string, []>("op_442_axes_0"), val = tensor<int32, [1]>([2])];
            tensor<bool, []> var_442_keep_dims_0 = const()[name = tensor<string, []>("op_442_keep_dims_0"), val = tensor<bool, []>(true)];
            tensor<fp16, [1, 1, 1]> var_442_cast_fp16 = reduce_mean(axes = var_442_axes_0, keep_dims = var_442_keep_dims_0, x = out_3_cast_fp16)[name = tensor<string, []>("op_442_cast_fp16")];
            tensor<int32, [1]> x_31_axes_0 = const()[name = tensor<string, []>("x_31_axes_0"), val = tensor<int32, [1]>([1])];
            tensor<fp16, [1, 1, 576]> x_31_cast_fp16 = expand_dims(axes = x_31_axes_0, x = x_29_cast_fp16)[name = tensor<string, []>("x_31_cast_fp16")];
            tensor<string, []> stft_out_5_pad_type_0 = const()[name = tensor<string, []>("stft_out_5_pad_type_0"), val = tensor<string, []>("custom")];
            tensor<int32, [2]> stft_out_5_pad_0 = const()[name = tensor<string, []>("stft_out_5_pad_0"), val = tensor<int32, [2]>([128, 128])];
            tensor<int32, [1]> stft_out_5_strides_0 = const()[name = tensor<string, []>("stft_out_5_strides_0"), val = tensor<int32, [1]>([256])];
            tensor<int32, [1]> stft_out_5_dilations_0 = const()[name = tensor<string, []>("stft_out_5_dilations_0"), val = tensor<int32, [1]>([1])];
            tensor<int32, []> stft_out_5_groups_0 = const()[name = tensor<string, []>("stft_out_5_groups_0"), val = tensor<int32, []>(1)];
            tensor<fp16, [1, 258, 3]> stft_out_5_cast_fp16 = conv(dilations = stft_out_5_dilations_0, groups = stft_out_5_groups_0, pad = stft_out_5_pad_0, pad_type = stft_out_5_pad_type_0, strides = stft_out_5_strides_0, weight = stft_forward_basis_to_fp16_quantized, x = x_31_cast_fp16)[name = tensor<string, []>("stft_out_5_cast_fp16")];
            tensor<int32, [3]> var_467_begin_0 = const()[name = tensor<string, []>("op_467_begin_0"), val = tensor<int32, [3]>([0, 0, 0])];
            tensor<int32, [3]> var_467_end_0 = const()[name = tensor<string, []>("op_467_end_0"), val = tensor<int32, [3]>([1, 129, 3])];
            tensor<bool, [3]> var_467_end_mask_0 = const()[name = tensor<string, []>("op_467_end_mask_0"), val = tensor<bool, [3]>([true, false, true])];
            tensor<fp16, [1, 129, 3]> var_467_cast_fp16 = slice_by_index(begin = var_467_begin_0, end = var_467_end_0, end_mask = var_467_end_mask_0, x = stft_out_5_cast_fp16)[name = tensor<string, []>("op_467_cast_fp16")];
            tensor<int32, [3]> var_470_begin_0 = const()[name = tensor<string, []>("op_470_begin_0"), val = tensor<int32, [3]>([0, 129, 0])];
            tensor<int32, [3]> var_470_end_0 = const()[name = tensor<string, []>("op_470_end_0"), val = tensor<int32, [3]>([1, 258, 3])];
            tensor<bool, [3]> var_470_end_mask_0 = const()[name = tensor<string, []>("op_470_end_mask_0"), val = tensor<bool, [3]>([true, true, true])];
            tensor<fp16, [1, 129, 3]> var_470_cast_fp16 = slice_by_index(begin = var_470_begin_0, end = var_470_end_0, end_mask = var_470_end_mask_0, x = stft_out_5_cast_fp16)[name = tensor<string, []>("op_470_cast_fp16")];
            tensor<fp16, []> var_449_promoted_to_fp16 = const()[name = tensor<string, []>("op_449_promoted_to_fp16"), val = tensor<fp16, []>(0x1p+1)];
            tensor<fp16, [1, 129, 3]> var_472_cast_fp16 = pow(x = var_467_cast_fp16, y = var_449_promoted_to_fp16)[name = tensor<string, []>("op_472_cast_fp16")];
            tensor<fp16, []> var_449_promoted_1_to_fp16 = const()[name = tensor<string, []>("op_449_promoted_1_to_fp16"), val = tensor<fp16, []>(0x1p+1)];
            tensor<fp16, [1, 129, 3]> var_473_cast_fp16 = pow(x = var_470_cast_fp16, y = var_449_promoted_1_to_fp16)[name = tensor<string, []>("op_473_cast_fp16")];
            tensor<fp16, [1, 129, 3]> var_474_cast_fp16 = add(x = var_472_cast_fp16, y = var_473_cast_fp16)[name = tensor<string, []>("op_474_cast_fp16")];
            tensor<fp16, []> var_475_to_fp16 = const()[name = tensor<string, []>("op_475_to_fp16"), val = tensor<fp16, []>(0x1p-24)];
            tensor<fp16, [1, 129, 3]> var_476_cast_fp16 = add(x = var_474_cast_fp16, y = var_475_to_fp16)[name = tensor<string, []>("op_476_cast_fp16")];
            tensor<fp16, [1, 129, 3]> magnitude_5_cast_fp16 = sqrt(x = var_476_cast_fp16)[name = tensor<string, []>("magnitude_5_cast_fp16")];
            tensor<fp16, []> var_478_to_fp16 = const()[name = tensor<string, []>("op_478_to_fp16"), val = tensor<fp16, []>(0x1p-24)];
            tensor<fp16, [1, 129, 3]> var_479_cast_fp16 = add(x = magnitude_5_cast_fp16, y = var_478_to_fp16)[name = tensor<string, []>("op_479_cast_fp16")];
            tensor<fp16, []> input_45_epsilon_0_to_fp16 = const()[name = tensor<string, []>("input_45_epsilon_0_to_fp16"), val = tensor<fp16, []>(0x0p+0)];
            tensor<fp16, [1, 129, 3]> input_45_cast_fp16 = log(epsilon = input_45_epsilon_0_to_fp16, x = var_479_cast_fp16)[name = tensor<string, []>("input_45_cast_fp16")];
            tensor<string, []> input_47_pad_type_0 = const()[name = tensor<string, []>("input_47_pad_type_0"), val = tensor<string, []>("custom")];
            tensor<int32, [2]> input_47_pad_0 = const()[name = tensor<string, []>("input_47_pad_0"), val = tensor<int32, [2]>([1, 1])];
            tensor<int32, [1]> input_47_strides_0 = const()[name = tensor<string, []>("input_47_strides_0"), val = tensor<int32, [1]>([1])];
            tensor<int32, [1]> input_47_dilations_0 = const()[name = tensor<string, []>("input_47_dilations_0"), val = tensor<int32, [1]>([1])];
            tensor<int32, []> input_47_groups_0 = const()[name = tensor<string, []>("input_47_groups_0"), val = tensor<int32, []>(1)];
            tensor<fp16, [1, 128, 3]> input_47_cast_fp16 = conv(bias = encoder_layers_0_bias_to_fp16, dilations = input_47_dilations_0, groups = input_47_groups_0, pad = input_47_pad_0, pad_type = input_47_pad_type_0, strides = input_47_strides_0, weight = encoder_layers_0_weight_to_fp16_quantized, x = input_45_cast_fp16)[name = tensor<string, []>("input_47_cast_fp16")];
            tensor<fp16, [1, 128, 3]> x_33_cast_fp16 = relu(x = input_47_cast_fp16)[name = tensor<string, []>("x_33_cast_fp16")];
            tensor<fp16, []> const_8_to_fp16 = const()[name = tensor<string, []>("const_8_to_fp16"), val = tensor<fp16, []>(-inf)];
            tensor<fp16, []> var_481_to_fp16 = const()[name = tensor<string, []>("op_481_to_fp16"), val = tensor<fp16, []>(0x1.388p+13)];
            tensor<fp16, [1, 128, 3]> clip_8_cast_fp16 = clip(alpha = const_8_to_fp16, beta = var_481_to_fp16, x = x_33_cast_fp16)[name = tensor<string, []>("clip_8_cast_fp16")];
            tensor<string, []> input_51_pad_type_0 = const()[name = tensor<string, []>("input_51_pad_type_0"), val = tensor<string, []>("custom")];
            tensor<int32, [2]> input_51_pad_0 = const()[name = tensor<string, []>("input_51_pad_0"), val = tensor<int32, [2]>([1, 1])];
            tensor<int32, [1]> input_51_strides_0 = const()[name = tensor<string, []>("input_51_strides_0"), val = tensor<int32, [1]>([1])];
            tensor<int32, [1]> input_51_dilations_0 = const()[name = tensor<string, []>("input_51_dilations_0"), val = tensor<int32, [1]>([1])];
            tensor<int32, []> input_51_groups_0 = const()[name = tensor<string, []>("input_51_groups_0"), val = tensor<int32, []>(1)];
            tensor<fp16, [1, 64, 3]> input_51_cast_fp16 = conv(bias = encoder_layers_2_bias_to_fp16, dilations = input_51_dilations_0, groups = input_51_groups_0, pad = input_51_pad_0, pad_type = input_51_pad_type_0, strides = input_51_strides_0, weight = encoder_layers_2_weight_to_fp16_quantized, x = clip_8_cast_fp16)[name = tensor<string, []>("input_51_cast_fp16")];
            tensor<fp16, [1, 64, 3]> x_35_cast_fp16 = relu(x = input_51_cast_fp16)[name = tensor<string, []>("x_35_cast_fp16")];
            tensor<fp16, []> const_9_to_fp16 = const()[name = tensor<string, []>("const_9_to_fp16"), val = tensor<fp16, []>(-inf)];
            tensor<fp16, [1, 64, 3]> clip_9_cast_fp16 = clip(alpha = const_9_to_fp16, beta = var_481_to_fp16, x = x_35_cast_fp16)[name = tensor<string, []>("clip_9_cast_fp16")];
            tensor<string, []> input_55_pad_type_0 = const()[name = tensor<string, []>("input_55_pad_type_0"), val = tensor<string, []>("custom")];
            tensor<int32, [2]> input_55_pad_0 = const()[name = tensor<string, []>("input_55_pad_0"), val = tensor<int32, [2]>([1, 1])];
            tensor<int32, [1]> input_55_strides_0 = const()[name = tensor<string, []>("input_55_strides_0"), val = tensor<int32, [1]>([1])];
            tensor<int32, [1]> input_55_dilations_0 = const()[name = tensor<string, []>("input_55_dilations_0"), val = tensor<int32, [1]>([1])];
            tensor<int32, []> input_55_groups_0 = const()[name = tensor<string, []>("input_55_groups_0"), val = tensor<int32, []>(1)];
            tensor<fp16, [1, 64, 3]> input_55_cast_fp16 = conv(bias = encoder_layers_4_bias_to_fp16, dilations = input_55_dilations_0, groups = input_55_groups_0, pad = input_55_pad_0, pad_type = input_55_pad_type_0, strides = input_55_strides_0, weight = encoder_layers_4_weight_to_fp16_quantized, x = clip_9_cast_fp16)[name = tensor<string, []>("input_55_cast_fp16")];
            tensor<fp16, [1, 64, 3]> x_37_cast_fp16 = relu(x = input_55_cast_fp16)[name = tensor<string, []>("x_37_cast_fp16")];
            tensor<fp16, []> const_10_to_fp16 = const()[name = tensor<string, []>("const_10_to_fp16"), val = tensor<fp16, []>(-inf)];
            tensor<fp16, [1, 64, 3]> clip_10_cast_fp16 = clip(alpha = const_10_to_fp16, beta = var_481_to_fp16, x = x_37_cast_fp16)[name = tensor<string, []>("clip_10_cast_fp16")];
            tensor<string, []> input_59_pad_type_0 = const()[name = tensor<string, []>("input_59_pad_type_0"), val = tensor<string, []>("custom")];
            tensor<int32, [2]> input_59_pad_0 = const()[name = tensor<string, []>("input_59_pad_0"), val = tensor<int32, [2]>([1, 1])];
            tensor<int32, [1]> input_59_strides_0 = const()[name = tensor<string, []>("input_59_strides_0"), val = tensor<int32, [1]>([1])];
            tensor<int32, [1]> input_59_dilations_0 = const()[name = tensor<string, []>("input_59_dilations_0"), val = tensor<int32, [1]>([1])];
            tensor<int32, []> input_59_groups_0 = const()[name = tensor<string, []>("input_59_groups_0"), val = tensor<int32, []>(1)];
            tensor<fp16, [1, 128, 3]> input_59_cast_fp16 = conv(bias = encoder_layers_6_bias_to_fp16, dilations = input_59_dilations_0, groups = input_59_groups_0, pad = input_59_pad_0, pad_type = input_59_pad_type_0, strides = input_59_strides_0, weight = encoder_layers_6_weight_to_fp16_quantized, x = clip_10_cast_fp16)[name = tensor<string, []>("input_59_cast_fp16")];
            tensor<fp16, [1, 128, 3]> x_39_cast_fp16 = relu(x = input_59_cast_fp16)[name = tensor<string, []>("x_39_cast_fp16")];
            tensor<fp16, []> const_11_to_fp16 = const()[name = tensor<string, []>("const_11_to_fp16"), val = tensor<fp16, []>(-inf)];
            tensor<fp16, [1, 128, 3]> clip_11_cast_fp16 = clip(alpha = const_11_to_fp16, beta = var_481_to_fp16, x = x_39_cast_fp16)[name = tensor<string, []>("clip_11_cast_fp16")];
            tensor<int32, [3]> transpose_4_perm_0 = const()[name = tensor<string, []>("transpose_4_perm_0"), val = tensor<int32, [3]>([2, 0, 1])];
            tensor<string, []> transpose_4_cast_fp16_to_fp32_dtype_0 = const()[name = tensor<string, []>("transpose_4_cast_fp16_to_fp32_dtype_0"), val = tensor<string, []>("fp32")];
            tensor<int32, [1]> lstm_out_5_batch_first_lstm_h0_squeeze_axes_0 = const()[name = tensor<string, []>("lstm_out_5_batch_first_lstm_h0_squeeze_axes_0"), val = tensor<int32, [1]>([0])];
            tensor<fp16, [1, 128]> lstm_out_5_batch_first_lstm_h0_squeeze_cast_fp16 = squeeze(axes = lstm_out_5_batch_first_lstm_h0_squeeze_axes_0, x = hn_3_cast_fp16)[name = tensor<string, []>("lstm_out_5_batch_first_lstm_h0_squeeze_cast_fp16")];
            tensor<string, []> lstm_out_5_batch_first_lstm_h0_squeeze_cast_fp16_to_fp32_dtype_0 = const()[name = tensor<string, []>("lstm_out_5_batch_first_lstm_h0_squeeze_cast_fp16_to_fp32_dtype_0"), val = tensor<string, []>("fp32")];
            tensor<int32, [1]> lstm_out_5_batch_first_lstm_c0_squeeze_axes_0 = const()[name = tensor<string, []>("lstm_out_5_batch_first_lstm_c0_squeeze_axes_0"), val = tensor<int32, [1]>([0])];
            tensor<fp16, [1, 128]> lstm_out_5_batch_first_lstm_c0_squeeze_cast_fp16 = squeeze(axes = lstm_out_5_batch_first_lstm_c0_squeeze_axes_0, x = cn_3_cast_fp16)[name = tensor<string, []>("lstm_out_5_batch_first_lstm_c0_squeeze_cast_fp16")];
            tensor<string, []> lstm_out_5_batch_first_lstm_c0_squeeze_cast_fp16_to_fp32_dtype_0 = const()[name = tensor<string, []>("lstm_out_5_batch_first_lstm_c0_squeeze_cast_fp16_to_fp32_dtype_0"), val = tensor<string, []>("fp32")];
            tensor<string, []> lstm_out_5_batch_first_direction_0 = const()[name = tensor<string, []>("lstm_out_5_batch_first_direction_0"), val = tensor<string, []>("forward")];
            tensor<bool, []> lstm_out_5_batch_first_output_sequence_0 = const()[name = tensor<string, []>("lstm_out_5_batch_first_output_sequence_0"), val = tensor<bool, []>(true)];
            tensor<string, []> lstm_out_5_batch_first_recurrent_activation_0 = const()[name = tensor<string, []>("lstm_out_5_batch_first_recurrent_activation_0"), val = tensor<string, []>("sigmoid")];
            tensor<string, []> lstm_out_5_batch_first_cell_activation_0 = const()[name = tensor<string, []>("lstm_out_5_batch_first_cell_activation_0"), val = tensor<string, []>("tanh")];
            tensor<string, []> lstm_out_5_batch_first_activation_0 = const()[name = tensor<string, []>("lstm_out_5_batch_first_activation_0"), val = tensor<string, []>("tanh")];
            tensor<fp16, [3, 1, 128]> transpose_4_cast_fp16 = transpose(perm = transpose_4_perm_0, x = clip_11_cast_fp16)[name = tensor<string, []>("transpose_11")];
            tensor<fp32, [3, 1, 128]> transpose_4_cast_fp16_to_fp32 = cast(dtype = transpose_4_cast_fp16_to_fp32_dtype_0, x = transpose_4_cast_fp16)[name = tensor<string, []>("cast_36")];
            tensor<fp32, [1, 128]> lstm_out_5_batch_first_lstm_h0_squeeze_cast_fp16_to_fp32 = cast(dtype = lstm_out_5_batch_first_lstm_h0_squeeze_cast_fp16_to_fp32_dtype_0, x = lstm_out_5_batch_first_lstm_h0_squeeze_cast_fp16)[name = tensor<string, []>("cast_37")];
            tensor<fp32, [1, 128]> lstm_out_5_batch_first_lstm_c0_squeeze_cast_fp16_to_fp32 = cast(dtype = lstm_out_5_batch_first_lstm_c0_squeeze_cast_fp16_to_fp32_dtype_0, x = lstm_out_5_batch_first_lstm_c0_squeeze_cast_fp16)[name = tensor<string, []>("cast_38")];
            tensor<fp32, [3, 1, 128]> lstm_out_5_batch_first_0, tensor<fp32, [1, 128]> lstm_out_5_batch_first_1, tensor<fp32, [1, 128]> lstm_out_5_batch_first_2 = lstm(activation = lstm_out_5_batch_first_activation_0, bias = concat_0, cell_activation = lstm_out_5_batch_first_cell_activation_0, direction = lstm_out_5_batch_first_direction_0, initial_c = lstm_out_5_batch_first_lstm_c0_squeeze_cast_fp16_to_fp32, initial_h = lstm_out_5_batch_first_lstm_h0_squeeze_cast_fp16_to_fp32, output_sequence = lstm_out_5_batch_first_output_sequence_0, recurrent_activation = lstm_out_5_batch_first_recurrent_activation_0, weight_hh = concat_2_quantized, weight_ih = concat_1_quantized, x = transpose_4_cast_fp16_to_fp32)[name = tensor<string, []>("lstm_out_5_batch_first")];
            tensor<int32, [3]> transpose_5_perm_0 = const()[name = tensor<string, []>("transpose_5_perm_0"), val = tensor<int32, [3]>([1, 2, 0])];
            tensor<string, []> lstm_out_5_batch_first_0_to_fp16_dtype_0 = const()[name = tensor<string, []>("lstm_out_5_batch_first_0_to_fp16_dtype_0"), val = tensor<string, []>("fp16")];
            tensor<int32, [1]> hn_5_axes_0 = const()[name = tensor<string, []>("hn_5_axes_0"), val = tensor<int32, [1]>([0])];
            tensor<string, []> lstm_out_5_batch_first_1_to_fp16_dtype_0 = const()[name = tensor<string, []>("lstm_out_5_batch_first_1_to_fp16_dtype_0"), val = tensor<string, []>("fp16")];
            tensor<fp16, [1, 128]> lstm_out_5_batch_first_1_to_fp16 = cast(dtype = lstm_out_5_batch_first_1_to_fp16_dtype_0, x = lstm_out_5_batch_first_1)[name = tensor<string, []>("cast_35")];
            tensor<fp16, [1, 1, 128]> hn_5_cast_fp16 = expand_dims(axes = hn_5_axes_0, x = lstm_out_5_batch_first_1_to_fp16)[name = tensor<string, []>("hn_5_cast_fp16")];
            tensor<int32, [1]> cn_5_axes_0 = const()[name = tensor<string, []>("cn_5_axes_0"), val = tensor<int32, [1]>([0])];
            tensor<string, []> lstm_out_5_batch_first_2_to_fp16_dtype_0 = const()[name = tensor<string, []>("lstm_out_5_batch_first_2_to_fp16_dtype_0"), val = tensor<string, []>("fp16")];
            tensor<fp16, [1, 128]> lstm_out_5_batch_first_2_to_fp16 = cast(dtype = lstm_out_5_batch_first_2_to_fp16_dtype_0, x = lstm_out_5_batch_first_2)[name = tensor<string, []>("cast_34")];
            tensor<fp16, [1, 1, 128]> cn_5_cast_fp16 = expand_dims(axes = cn_5_axes_0, x = lstm_out_5_batch_first_2_to_fp16)[name = tensor<string, []>("cn_5_cast_fp16")];
            tensor<string, []> input_65_pad_type_0 = const()[name = tensor<string, []>("input_65_pad_type_0"), val = tensor<string, []>("valid")];
            tensor<int32, [1]> input_65_strides_0 = const()[name = tensor<string, []>("input_65_strides_0"), val = tensor<int32, [1]>([1])];
            tensor<int32, [2]> input_65_pad_0 = const()[name = tensor<string, []>("input_65_pad_0"), val = tensor<int32, [2]>([0, 0])];
            tensor<int32, [1]> input_65_dilations_0 = const()[name = tensor<string, []>("input_65_dilations_0"), val = tensor<int32, [1]>([1])];
            tensor<int32, []> input_65_groups_0 = const()[name = tensor<string, []>("input_65_groups_0"), val = tensor<int32, []>(1)];
            tensor<fp16, [3, 1, 128]> lstm_out_5_batch_first_0_to_fp16 = cast(dtype = lstm_out_5_batch_first_0_to_fp16_dtype_0, x = lstm_out_5_batch_first_0)[name = tensor<string, []>("cast_33")];
            tensor<fp16, [1, 128, 3]> transpose_5_cast_fp16 = transpose(perm = transpose_5_perm_0, x = lstm_out_5_batch_first_0_to_fp16)[name = tensor<string, []>("transpose_10")];
            tensor<fp16, [1, 1, 3]> input_65_cast_fp16 = conv(bias = decoder_final_conv_bias_to_fp16, dilations = input_65_dilations_0, groups = input_65_groups_0, pad = input_65_pad_0, pad_type = input_65_pad_type_0, strides = input_65_strides_0, weight = decoder_final_conv_weight_to_fp16, x = transpose_5_cast_fp16)[name = tensor<string, []>("input_65_cast_fp16")];
            tensor<fp16, [1, 1, 3]> out_5_cast_fp16 = sigmoid(x = input_65_cast_fp16)[name = tensor<string, []>("out_5_cast_fp16")];
            tensor<int32, [1]> var_566_axes_0 = const()[name = tensor<string, []>("op_566_axes_0"), val = tensor<int32, [1]>([2])];
            tensor<bool, []> var_566_keep_dims_0 = const()[name = tensor<string, []>("op_566_keep_dims_0"), val = tensor<bool, []>(true)];
            tensor<fp16, [1, 1, 1]> var_566_cast_fp16 = reduce_mean(axes = var_566_axes_0, keep_dims = var_566_keep_dims_0, x = out_5_cast_fp16)[name = tensor<string, []>("op_566_cast_fp16")];
            tensor<int32, [1]> x_45_axes_0 = const()[name = tensor<string, []>("x_45_axes_0"), val = tensor<int32, [1]>([1])];
            tensor<fp16, [1, 1, 576]> x_45_cast_fp16 = expand_dims(axes = x_45_axes_0, x = x_43_cast_fp16)[name = tensor<string, []>("x_45_cast_fp16")];
            tensor<string, []> stft_out_7_pad_type_0 = const()[name = tensor<string, []>("stft_out_7_pad_type_0"), val = tensor<string, []>("custom")];
            tensor<int32, [2]> stft_out_7_pad_0 = const()[name = tensor<string, []>("stft_out_7_pad_0"), val = tensor<int32, [2]>([128, 128])];
            tensor<int32, [1]> stft_out_7_strides_0 = const()[name = tensor<string, []>("stft_out_7_strides_0"), val = tensor<int32, [1]>([256])];
            tensor<int32, [1]> stft_out_7_dilations_0 = const()[name = tensor<string, []>("stft_out_7_dilations_0"), val = tensor<int32, [1]>([1])];
            tensor<int32, []> stft_out_7_groups_0 = const()[name = tensor<string, []>("stft_out_7_groups_0"), val = tensor<int32, []>(1)];
            tensor<fp16, [1, 258, 3]> stft_out_7_cast_fp16 = conv(dilations = stft_out_7_dilations_0, groups = stft_out_7_groups_0, pad = stft_out_7_pad_0, pad_type = stft_out_7_pad_type_0, strides = stft_out_7_strides_0, weight = stft_forward_basis_to_fp16_quantized, x = x_45_cast_fp16)[name = tensor<string, []>("stft_out_7_cast_fp16")];
            tensor<int32, [3]> var_591_begin_0 = const()[name = tensor<string, []>("op_591_begin_0"), val = tensor<int32, [3]>([0, 0, 0])];
            tensor<int32, [3]> var_591_end_0 = const()[name = tensor<string, []>("op_591_end_0"), val = tensor<int32, [3]>([1, 129, 3])];
            tensor<bool, [3]> var_591_end_mask_0 = const()[name = tensor<string, []>("op_591_end_mask_0"), val = tensor<bool, [3]>([true, false, true])];
            tensor<fp16, [1, 129, 3]> var_591_cast_fp16 = slice_by_index(begin = var_591_begin_0, end = var_591_end_0, end_mask = var_591_end_mask_0, x = stft_out_7_cast_fp16)[name = tensor<string, []>("op_591_cast_fp16")];
            tensor<int32, [3]> var_594_begin_0 = const()[name = tensor<string, []>("op_594_begin_0"), val = tensor<int32, [3]>([0, 129, 0])];
            tensor<int32, [3]> var_594_end_0 = const()[name = tensor<string, []>("op_594_end_0"), val = tensor<int32, [3]>([1, 258, 3])];
            tensor<bool, [3]> var_594_end_mask_0 = const()[name = tensor<string, []>("op_594_end_mask_0"), val = tensor<bool, [3]>([true, true, true])];
            tensor<fp16, [1, 129, 3]> var_594_cast_fp16 = slice_by_index(begin = var_594_begin_0, end = var_594_end_0, end_mask = var_594_end_mask_0, x = stft_out_7_cast_fp16)[name = tensor<string, []>("op_594_cast_fp16")];
            tensor<fp16, []> var_573_promoted_to_fp16 = const()[name = tensor<string, []>("op_573_promoted_to_fp16"), val = tensor<fp16, []>(0x1p+1)];
            tensor<fp16, [1, 129, 3]> var_596_cast_fp16 = pow(x = var_591_cast_fp16, y = var_573_promoted_to_fp16)[name = tensor<string, []>("op_596_cast_fp16")];
            tensor<fp16, []> var_573_promoted_1_to_fp16 = const()[name = tensor<string, []>("op_573_promoted_1_to_fp16"), val = tensor<fp16, []>(0x1p+1)];
            tensor<fp16, [1, 129, 3]> var_597_cast_fp16 = pow(x = var_594_cast_fp16, y = var_573_promoted_1_to_fp16)[name = tensor<string, []>("op_597_cast_fp16")];
            tensor<fp16, [1, 129, 3]> var_598_cast_fp16 = add(x = var_596_cast_fp16, y = var_597_cast_fp16)[name = tensor<string, []>("op_598_cast_fp16")];
            tensor<fp16, []> var_599_to_fp16 = const()[name = tensor<string, []>("op_599_to_fp16"), val = tensor<fp16, []>(0x1p-24)];
            tensor<fp16, [1, 129, 3]> var_600_cast_fp16 = add(x = var_598_cast_fp16, y = var_599_to_fp16)[name = tensor<string, []>("op_600_cast_fp16")];
            tensor<fp16, [1, 129, 3]> magnitude_7_cast_fp16 = sqrt(x = var_600_cast_fp16)[name = tensor<string, []>("magnitude_7_cast_fp16")];
            tensor<fp16, []> var_602_to_fp16 = const()[name = tensor<string, []>("op_602_to_fp16"), val = tensor<fp16, []>(0x1p-24)];
            tensor<fp16, [1, 129, 3]> var_603_cast_fp16 = add(x = magnitude_7_cast_fp16, y = var_602_to_fp16)[name = tensor<string, []>("op_603_cast_fp16")];
            tensor<fp16, []> input_67_epsilon_0_to_fp16 = const()[name = tensor<string, []>("input_67_epsilon_0_to_fp16"), val = tensor<fp16, []>(0x0p+0)];
            tensor<fp16, [1, 129, 3]> input_67_cast_fp16 = log(epsilon = input_67_epsilon_0_to_fp16, x = var_603_cast_fp16)[name = tensor<string, []>("input_67_cast_fp16")];
            tensor<string, []> input_69_pad_type_0 = const()[name = tensor<string, []>("input_69_pad_type_0"), val = tensor<string, []>("custom")];
            tensor<int32, [2]> input_69_pad_0 = const()[name = tensor<string, []>("input_69_pad_0"), val = tensor<int32, [2]>([1, 1])];
            tensor<int32, [1]> input_69_strides_0 = const()[name = tensor<string, []>("input_69_strides_0"), val = tensor<int32, [1]>([1])];
            tensor<int32, [1]> input_69_dilations_0 = const()[name = tensor<string, []>("input_69_dilations_0"), val = tensor<int32, [1]>([1])];
            tensor<int32, []> input_69_groups_0 = const()[name = tensor<string, []>("input_69_groups_0"), val = tensor<int32, []>(1)];
            tensor<fp16, [1, 128, 3]> input_69_cast_fp16 = conv(bias = encoder_layers_0_bias_to_fp16, dilations = input_69_dilations_0, groups = input_69_groups_0, pad = input_69_pad_0, pad_type = input_69_pad_type_0, strides = input_69_strides_0, weight = encoder_layers_0_weight_to_fp16_quantized, x = input_67_cast_fp16)[name = tensor<string, []>("input_69_cast_fp16")];
            tensor<fp16, [1, 128, 3]> x_47_cast_fp16 = relu(x = input_69_cast_fp16)[name = tensor<string, []>("x_47_cast_fp16")];
            tensor<fp16, []> const_12_to_fp16 = const()[name = tensor<string, []>("const_12_to_fp16"), val = tensor<fp16, []>(-inf)];
            tensor<fp16, []> var_605_to_fp16 = const()[name = tensor<string, []>("op_605_to_fp16"), val = tensor<fp16, []>(0x1.388p+13)];
            tensor<fp16, [1, 128, 3]> clip_12_cast_fp16 = clip(alpha = const_12_to_fp16, beta = var_605_to_fp16, x = x_47_cast_fp16)[name = tensor<string, []>("clip_12_cast_fp16")];
            tensor<string, []> input_73_pad_type_0 = const()[name = tensor<string, []>("input_73_pad_type_0"), val = tensor<string, []>("custom")];
            tensor<int32, [2]> input_73_pad_0 = const()[name = tensor<string, []>("input_73_pad_0"), val = tensor<int32, [2]>([1, 1])];
            tensor<int32, [1]> input_73_strides_0 = const()[name = tensor<string, []>("input_73_strides_0"), val = tensor<int32, [1]>([1])];
            tensor<int32, [1]> input_73_dilations_0 = const()[name = tensor<string, []>("input_73_dilations_0"), val = tensor<int32, [1]>([1])];
            tensor<int32, []> input_73_groups_0 = const()[name = tensor<string, []>("input_73_groups_0"), val = tensor<int32, []>(1)];
            tensor<fp16, [1, 64, 3]> input_73_cast_fp16 = conv(bias = encoder_layers_2_bias_to_fp16, dilations = input_73_dilations_0, groups = input_73_groups_0, pad = input_73_pad_0, pad_type = input_73_pad_type_0, strides = input_73_strides_0, weight = encoder_layers_2_weight_to_fp16_quantized, x = clip_12_cast_fp16)[name = tensor<string, []>("input_73_cast_fp16")];
            tensor<fp16, [1, 64, 3]> x_49_cast_fp16 = relu(x = input_73_cast_fp16)[name = tensor<string, []>("x_49_cast_fp16")];
            tensor<fp16, []> const_13_to_fp16 = const()[name = tensor<string, []>("const_13_to_fp16"), val = tensor<fp16, []>(-inf)];
            tensor<fp16, [1, 64, 3]> clip_13_cast_fp16 = clip(alpha = const_13_to_fp16, beta = var_605_to_fp16, x = x_49_cast_fp16)[name = tensor<string, []>("clip_13_cast_fp16")];
            tensor<string, []> input_77_pad_type_0 = const()[name = tensor<string, []>("input_77_pad_type_0"), val = tensor<string, []>("custom")];
            tensor<int32, [2]> input_77_pad_0 = const()[name = tensor<string, []>("input_77_pad_0"), val = tensor<int32, [2]>([1, 1])];
            tensor<int32, [1]> input_77_strides_0 = const()[name = tensor<string, []>("input_77_strides_0"), val = tensor<int32, [1]>([1])];
            tensor<int32, [1]> input_77_dilations_0 = const()[name = tensor<string, []>("input_77_dilations_0"), val = tensor<int32, [1]>([1])];
            tensor<int32, []> input_77_groups_0 = const()[name = tensor<string, []>("input_77_groups_0"), val = tensor<int32, []>(1)];
            tensor<fp16, [1, 64, 3]> input_77_cast_fp16 = conv(bias = encoder_layers_4_bias_to_fp16, dilations = input_77_dilations_0, groups = input_77_groups_0, pad = input_77_pad_0, pad_type = input_77_pad_type_0, strides = input_77_strides_0, weight = encoder_layers_4_weight_to_fp16_quantized, x = clip_13_cast_fp16)[name = tensor<string, []>("input_77_cast_fp16")];
            tensor<fp16, [1, 64, 3]> x_51_cast_fp16 = relu(x = input_77_cast_fp16)[name = tensor<string, []>("x_51_cast_fp16")];
            tensor<fp16, []> const_14_to_fp16 = const()[name = tensor<string, []>("const_14_to_fp16"), val = tensor<fp16, []>(-inf)];
            tensor<fp16, [1, 64, 3]> clip_14_cast_fp16 = clip(alpha = const_14_to_fp16, beta = var_605_to_fp16, x = x_51_cast_fp16)[name = tensor<string, []>("clip_14_cast_fp16")];
            tensor<string, []> input_81_pad_type_0 = const()[name = tensor<string, []>("input_81_pad_type_0"), val = tensor<string, []>("custom")];
            tensor<int32, [2]> input_81_pad_0 = const()[name = tensor<string, []>("input_81_pad_0"), val = tensor<int32, [2]>([1, 1])];
            tensor<int32, [1]> input_81_strides_0 = const()[name = tensor<string, []>("input_81_strides_0"), val = tensor<int32, [1]>([1])];
            tensor<int32, [1]> input_81_dilations_0 = const()[name = tensor<string, []>("input_81_dilations_0"), val = tensor<int32, [1]>([1])];
            tensor<int32, []> input_81_groups_0 = const()[name = tensor<string, []>("input_81_groups_0"), val = tensor<int32, []>(1)];
            tensor<fp16, [1, 128, 3]> input_81_cast_fp16 = conv(bias = encoder_layers_6_bias_to_fp16, dilations = input_81_dilations_0, groups = input_81_groups_0, pad = input_81_pad_0, pad_type = input_81_pad_type_0, strides = input_81_strides_0, weight = encoder_layers_6_weight_to_fp16_quantized, x = clip_14_cast_fp16)[name = tensor<string, []>("input_81_cast_fp16")];
            tensor<fp16, [1, 128, 3]> x_53_cast_fp16 = relu(x = input_81_cast_fp16)[name = tensor<string, []>("x_53_cast_fp16")];
            tensor<fp16, []> const_15_to_fp16 = const()[name = tensor<string, []>("const_15_to_fp16"), val = tensor<fp16, []>(-inf)];
            tensor<fp16, [1, 128, 3]> clip_15_cast_fp16 = clip(alpha = const_15_to_fp16, beta = var_605_to_fp16, x = x_53_cast_fp16)[name = tensor<string, []>("clip_15_cast_fp16")];
            tensor<int32, [3]> transpose_6_perm_0 = const()[name = tensor<string, []>("transpose_6_perm_0"), val = tensor<int32, [3]>([2, 0, 1])];
            tensor<string, []> transpose_6_cast_fp16_to_fp32_dtype_0 = const()[name = tensor<string, []>("transpose_6_cast_fp16_to_fp32_dtype_0"), val = tensor<string, []>("fp32")];
            tensor<int32, [1]> lstm_out_7_batch_first_lstm_h0_squeeze_axes_0 = const()[name = tensor<string, []>("lstm_out_7_batch_first_lstm_h0_squeeze_axes_0"), val = tensor<int32, [1]>([0])];
            tensor<fp16, [1, 128]> lstm_out_7_batch_first_lstm_h0_squeeze_cast_fp16 = squeeze(axes = lstm_out_7_batch_first_lstm_h0_squeeze_axes_0, x = hn_5_cast_fp16)[name = tensor<string, []>("lstm_out_7_batch_first_lstm_h0_squeeze_cast_fp16")];
            tensor<string, []> lstm_out_7_batch_first_lstm_h0_squeeze_cast_fp16_to_fp32_dtype_0 = const()[name = tensor<string, []>("lstm_out_7_batch_first_lstm_h0_squeeze_cast_fp16_to_fp32_dtype_0"), val = tensor<string, []>("fp32")];
            tensor<int32, [1]> lstm_out_7_batch_first_lstm_c0_squeeze_axes_0 = const()[name = tensor<string, []>("lstm_out_7_batch_first_lstm_c0_squeeze_axes_0"), val = tensor<int32, [1]>([0])];
            tensor<fp16, [1, 128]> lstm_out_7_batch_first_lstm_c0_squeeze_cast_fp16 = squeeze(axes = lstm_out_7_batch_first_lstm_c0_squeeze_axes_0, x = cn_5_cast_fp16)[name = tensor<string, []>("lstm_out_7_batch_first_lstm_c0_squeeze_cast_fp16")];
            tensor<string, []> lstm_out_7_batch_first_lstm_c0_squeeze_cast_fp16_to_fp32_dtype_0 = const()[name = tensor<string, []>("lstm_out_7_batch_first_lstm_c0_squeeze_cast_fp16_to_fp32_dtype_0"), val = tensor<string, []>("fp32")];
            tensor<string, []> lstm_out_7_batch_first_direction_0 = const()[name = tensor<string, []>("lstm_out_7_batch_first_direction_0"), val = tensor<string, []>("forward")];
            tensor<bool, []> lstm_out_7_batch_first_output_sequence_0 = const()[name = tensor<string, []>("lstm_out_7_batch_first_output_sequence_0"), val = tensor<bool, []>(true)];
            tensor<string, []> lstm_out_7_batch_first_recurrent_activation_0 = const()[name = tensor<string, []>("lstm_out_7_batch_first_recurrent_activation_0"), val = tensor<string, []>("sigmoid")];
            tensor<string, []> lstm_out_7_batch_first_cell_activation_0 = const()[name = tensor<string, []>("lstm_out_7_batch_first_cell_activation_0"), val = tensor<string, []>("tanh")];
            tensor<string, []> lstm_out_7_batch_first_activation_0 = const()[name = tensor<string, []>("lstm_out_7_batch_first_activation_0"), val = tensor<string, []>("tanh")];
            tensor<fp16, [3, 1, 128]> transpose_6_cast_fp16 = transpose(perm = transpose_6_perm_0, x = clip_15_cast_fp16)[name = tensor<string, []>("transpose_9")];
            tensor<fp32, [3, 1, 128]> transpose_6_cast_fp16_to_fp32 = cast(dtype = transpose_6_cast_fp16_to_fp32_dtype_0, x = transpose_6_cast_fp16)[name = tensor<string, []>("cast_30")];
            tensor<fp32, [1, 128]> lstm_out_7_batch_first_lstm_h0_squeeze_cast_fp16_to_fp32 = cast(dtype = lstm_out_7_batch_first_lstm_h0_squeeze_cast_fp16_to_fp32_dtype_0, x = lstm_out_7_batch_first_lstm_h0_squeeze_cast_fp16)[name = tensor<string, []>("cast_31")];
            tensor<fp32, [1, 128]> lstm_out_7_batch_first_lstm_c0_squeeze_cast_fp16_to_fp32 = cast(dtype = lstm_out_7_batch_first_lstm_c0_squeeze_cast_fp16_to_fp32_dtype_0, x = lstm_out_7_batch_first_lstm_c0_squeeze_cast_fp16)[name = tensor<string, []>("cast_32")];
            tensor<fp32, [3, 1, 128]> lstm_out_7_batch_first_0, tensor<fp32, [1, 128]> lstm_out_7_batch_first_1, tensor<fp32, [1, 128]> lstm_out_7_batch_first_2 = lstm(activation = lstm_out_7_batch_first_activation_0, bias = concat_0, cell_activation = lstm_out_7_batch_first_cell_activation_0, direction = lstm_out_7_batch_first_direction_0, initial_c = lstm_out_7_batch_first_lstm_c0_squeeze_cast_fp16_to_fp32, initial_h = lstm_out_7_batch_first_lstm_h0_squeeze_cast_fp16_to_fp32, output_sequence = lstm_out_7_batch_first_output_sequence_0, recurrent_activation = lstm_out_7_batch_first_recurrent_activation_0, weight_hh = concat_2_quantized, weight_ih = concat_1_quantized, x = transpose_6_cast_fp16_to_fp32)[name = tensor<string, []>("lstm_out_7_batch_first")];
            tensor<int32, [3]> transpose_7_perm_0 = const()[name = tensor<string, []>("transpose_7_perm_0"), val = tensor<int32, [3]>([1, 2, 0])];
            tensor<string, []> lstm_out_7_batch_first_0_to_fp16_dtype_0 = const()[name = tensor<string, []>("lstm_out_7_batch_first_0_to_fp16_dtype_0"), val = tensor<string, []>("fp16")];
            tensor<int32, [1]> hn_7_axes_0 = const()[name = tensor<string, []>("hn_7_axes_0"), val = tensor<int32, [1]>([0])];
            tensor<string, []> lstm_out_7_batch_first_1_to_fp16_dtype_0 = const()[name = tensor<string, []>("lstm_out_7_batch_first_1_to_fp16_dtype_0"), val = tensor<string, []>("fp16")];
            tensor<fp16, [1, 128]> lstm_out_7_batch_first_1_to_fp16 = cast(dtype = lstm_out_7_batch_first_1_to_fp16_dtype_0, x = lstm_out_7_batch_first_1)[name = tensor<string, []>("cast_29")];
            tensor<fp16, [1, 1, 128]> hn_7_cast_fp16 = expand_dims(axes = hn_7_axes_0, x = lstm_out_7_batch_first_1_to_fp16)[name = tensor<string, []>("hn_7_cast_fp16")];
            tensor<int32, [1]> cn_7_axes_0 = const()[name = tensor<string, []>("cn_7_axes_0"), val = tensor<int32, [1]>([0])];
            tensor<string, []> lstm_out_7_batch_first_2_to_fp16_dtype_0 = const()[name = tensor<string, []>("lstm_out_7_batch_first_2_to_fp16_dtype_0"), val = tensor<string, []>("fp16")];
            tensor<fp16, [1, 128]> lstm_out_7_batch_first_2_to_fp16 = cast(dtype = lstm_out_7_batch_first_2_to_fp16_dtype_0, x = lstm_out_7_batch_first_2)[name = tensor<string, []>("cast_28")];
            tensor<fp16, [1, 1, 128]> cn_7_cast_fp16 = expand_dims(axes = cn_7_axes_0, x = lstm_out_7_batch_first_2_to_fp16)[name = tensor<string, []>("cn_7_cast_fp16")];
            tensor<string, []> input_87_pad_type_0 = const()[name = tensor<string, []>("input_87_pad_type_0"), val = tensor<string, []>("valid")];
            tensor<int32, [1]> input_87_strides_0 = const()[name = tensor<string, []>("input_87_strides_0"), val = tensor<int32, [1]>([1])];
            tensor<int32, [2]> input_87_pad_0 = const()[name = tensor<string, []>("input_87_pad_0"), val = tensor<int32, [2]>([0, 0])];
            tensor<int32, [1]> input_87_dilations_0 = const()[name = tensor<string, []>("input_87_dilations_0"), val = tensor<int32, [1]>([1])];
            tensor<int32, []> input_87_groups_0 = const()[name = tensor<string, []>("input_87_groups_0"), val = tensor<int32, []>(1)];
            tensor<fp16, [3, 1, 128]> lstm_out_7_batch_first_0_to_fp16 = cast(dtype = lstm_out_7_batch_first_0_to_fp16_dtype_0, x = lstm_out_7_batch_first_0)[name = tensor<string, []>("cast_27")];
            tensor<fp16, [1, 128, 3]> transpose_7_cast_fp16 = transpose(perm = transpose_7_perm_0, x = lstm_out_7_batch_first_0_to_fp16)[name = tensor<string, []>("transpose_8")];
            tensor<fp16, [1, 1, 3]> input_87_cast_fp16 = conv(bias = decoder_final_conv_bias_to_fp16, dilations = input_87_dilations_0, groups = input_87_groups_0, pad = input_87_pad_0, pad_type = input_87_pad_type_0, strides = input_87_strides_0, weight = decoder_final_conv_weight_to_fp16, x = transpose_7_cast_fp16)[name = tensor<string, []>("input_87_cast_fp16")];
            tensor<fp16, [1, 1, 3]> out_7_cast_fp16 = sigmoid(x = input_87_cast_fp16)[name = tensor<string, []>("out_7_cast_fp16")];
            tensor<int32, [1]> var_690_axes_0 = const()[name = tensor<string, []>("op_690_axes_0"), val = tensor<int32, [1]>([2])];
            tensor<bool, []> var_690_keep_dims_0 = const()[name = tensor<string, []>("op_690_keep_dims_0"), val = tensor<bool, []>(true)];
            tensor<fp16, [1, 1, 1]> var_690_cast_fp16 = reduce_mean(axes = var_690_axes_0, keep_dims = var_690_keep_dims_0, x = out_7_cast_fp16)[name = tensor<string, []>("op_690_cast_fp16")];
            tensor<int32, [1]> x_59_axes_0 = const()[name = tensor<string, []>("x_59_axes_0"), val = tensor<int32, [1]>([1])];
            tensor<fp16, [1, 1, 576]> x_59_cast_fp16 = expand_dims(axes = x_59_axes_0, x = x_57_cast_fp16)[name = tensor<string, []>("x_59_cast_fp16")];
            tensor<string, []> stft_out_9_pad_type_0 = const()[name = tensor<string, []>("stft_out_9_pad_type_0"), val = tensor<string, []>("custom")];
            tensor<int32, [2]> stft_out_9_pad_0 = const()[name = tensor<string, []>("stft_out_9_pad_0"), val = tensor<int32, [2]>([128, 128])];
            tensor<int32, [1]> stft_out_9_strides_0 = const()[name = tensor<string, []>("stft_out_9_strides_0"), val = tensor<int32, [1]>([256])];
            tensor<int32, [1]> stft_out_9_dilations_0 = const()[name = tensor<string, []>("stft_out_9_dilations_0"), val = tensor<int32, [1]>([1])];
            tensor<int32, []> stft_out_9_groups_0 = const()[name = tensor<string, []>("stft_out_9_groups_0"), val = tensor<int32, []>(1)];
            tensor<fp16, [1, 258, 3]> stft_out_9_cast_fp16 = conv(dilations = stft_out_9_dilations_0, groups = stft_out_9_groups_0, pad = stft_out_9_pad_0, pad_type = stft_out_9_pad_type_0, strides = stft_out_9_strides_0, weight = stft_forward_basis_to_fp16_quantized, x = x_59_cast_fp16)[name = tensor<string, []>("stft_out_9_cast_fp16")];
            tensor<int32, [3]> var_715_begin_0 = const()[name = tensor<string, []>("op_715_begin_0"), val = tensor<int32, [3]>([0, 0, 0])];
            tensor<int32, [3]> var_715_end_0 = const()[name = tensor<string, []>("op_715_end_0"), val = tensor<int32, [3]>([1, 129, 3])];
            tensor<bool, [3]> var_715_end_mask_0 = const()[name = tensor<string, []>("op_715_end_mask_0"), val = tensor<bool, [3]>([true, false, true])];
            tensor<fp16, [1, 129, 3]> var_715_cast_fp16 = slice_by_index(begin = var_715_begin_0, end = var_715_end_0, end_mask = var_715_end_mask_0, x = stft_out_9_cast_fp16)[name = tensor<string, []>("op_715_cast_fp16")];
            tensor<int32, [3]> var_718_begin_0 = const()[name = tensor<string, []>("op_718_begin_0"), val = tensor<int32, [3]>([0, 129, 0])];
            tensor<int32, [3]> var_718_end_0 = const()[name = tensor<string, []>("op_718_end_0"), val = tensor<int32, [3]>([1, 258, 3])];
            tensor<bool, [3]> var_718_end_mask_0 = const()[name = tensor<string, []>("op_718_end_mask_0"), val = tensor<bool, [3]>([true, true, true])];
            tensor<fp16, [1, 129, 3]> var_718_cast_fp16 = slice_by_index(begin = var_718_begin_0, end = var_718_end_0, end_mask = var_718_end_mask_0, x = stft_out_9_cast_fp16)[name = tensor<string, []>("op_718_cast_fp16")];
            tensor<fp16, []> var_697_promoted_to_fp16 = const()[name = tensor<string, []>("op_697_promoted_to_fp16"), val = tensor<fp16, []>(0x1p+1)];
            tensor<fp16, [1, 129, 3]> var_720_cast_fp16 = pow(x = var_715_cast_fp16, y = var_697_promoted_to_fp16)[name = tensor<string, []>("op_720_cast_fp16")];
            tensor<fp16, []> var_697_promoted_1_to_fp16 = const()[name = tensor<string, []>("op_697_promoted_1_to_fp16"), val = tensor<fp16, []>(0x1p+1)];
            tensor<fp16, [1, 129, 3]> var_721_cast_fp16 = pow(x = var_718_cast_fp16, y = var_697_promoted_1_to_fp16)[name = tensor<string, []>("op_721_cast_fp16")];
            tensor<fp16, [1, 129, 3]> var_722_cast_fp16 = add(x = var_720_cast_fp16, y = var_721_cast_fp16)[name = tensor<string, []>("op_722_cast_fp16")];
            tensor<fp16, []> var_723_to_fp16 = const()[name = tensor<string, []>("op_723_to_fp16"), val = tensor<fp16, []>(0x1p-24)];
            tensor<fp16, [1, 129, 3]> var_724_cast_fp16 = add(x = var_722_cast_fp16, y = var_723_to_fp16)[name = tensor<string, []>("op_724_cast_fp16")];
            tensor<fp16, [1, 129, 3]> magnitude_9_cast_fp16 = sqrt(x = var_724_cast_fp16)[name = tensor<string, []>("magnitude_9_cast_fp16")];
            tensor<fp16, []> var_726_to_fp16 = const()[name = tensor<string, []>("op_726_to_fp16"), val = tensor<fp16, []>(0x1p-24)];
            tensor<fp16, [1, 129, 3]> var_727_cast_fp16 = add(x = magnitude_9_cast_fp16, y = var_726_to_fp16)[name = tensor<string, []>("op_727_cast_fp16")];
            tensor<fp16, []> input_89_epsilon_0_to_fp16 = const()[name = tensor<string, []>("input_89_epsilon_0_to_fp16"), val = tensor<fp16, []>(0x0p+0)];
            tensor<fp16, [1, 129, 3]> input_89_cast_fp16 = log(epsilon = input_89_epsilon_0_to_fp16, x = var_727_cast_fp16)[name = tensor<string, []>("input_89_cast_fp16")];
            tensor<string, []> input_91_pad_type_0 = const()[name = tensor<string, []>("input_91_pad_type_0"), val = tensor<string, []>("custom")];
            tensor<int32, [2]> input_91_pad_0 = const()[name = tensor<string, []>("input_91_pad_0"), val = tensor<int32, [2]>([1, 1])];
            tensor<int32, [1]> input_91_strides_0 = const()[name = tensor<string, []>("input_91_strides_0"), val = tensor<int32, [1]>([1])];
            tensor<int32, [1]> input_91_dilations_0 = const()[name = tensor<string, []>("input_91_dilations_0"), val = tensor<int32, [1]>([1])];
            tensor<int32, []> input_91_groups_0 = const()[name = tensor<string, []>("input_91_groups_0"), val = tensor<int32, []>(1)];
            tensor<fp16, [1, 128, 3]> input_91_cast_fp16 = conv(bias = encoder_layers_0_bias_to_fp16, dilations = input_91_dilations_0, groups = input_91_groups_0, pad = input_91_pad_0, pad_type = input_91_pad_type_0, strides = input_91_strides_0, weight = encoder_layers_0_weight_to_fp16_quantized, x = input_89_cast_fp16)[name = tensor<string, []>("input_91_cast_fp16")];
            tensor<fp16, [1, 128, 3]> x_61_cast_fp16 = relu(x = input_91_cast_fp16)[name = tensor<string, []>("x_61_cast_fp16")];
            tensor<fp16, []> const_16_to_fp16 = const()[name = tensor<string, []>("const_16_to_fp16"), val = tensor<fp16, []>(-inf)];
            tensor<fp16, []> var_729_to_fp16 = const()[name = tensor<string, []>("op_729_to_fp16"), val = tensor<fp16, []>(0x1.388p+13)];
            tensor<fp16, [1, 128, 3]> clip_16_cast_fp16 = clip(alpha = const_16_to_fp16, beta = var_729_to_fp16, x = x_61_cast_fp16)[name = tensor<string, []>("clip_16_cast_fp16")];
            tensor<string, []> input_95_pad_type_0 = const()[name = tensor<string, []>("input_95_pad_type_0"), val = tensor<string, []>("custom")];
            tensor<int32, [2]> input_95_pad_0 = const()[name = tensor<string, []>("input_95_pad_0"), val = tensor<int32, [2]>([1, 1])];
            tensor<int32, [1]> input_95_strides_0 = const()[name = tensor<string, []>("input_95_strides_0"), val = tensor<int32, [1]>([1])];
            tensor<int32, [1]> input_95_dilations_0 = const()[name = tensor<string, []>("input_95_dilations_0"), val = tensor<int32, [1]>([1])];
            tensor<int32, []> input_95_groups_0 = const()[name = tensor<string, []>("input_95_groups_0"), val = tensor<int32, []>(1)];
            tensor<fp16, [1, 64, 3]> input_95_cast_fp16 = conv(bias = encoder_layers_2_bias_to_fp16, dilations = input_95_dilations_0, groups = input_95_groups_0, pad = input_95_pad_0, pad_type = input_95_pad_type_0, strides = input_95_strides_0, weight = encoder_layers_2_weight_to_fp16_quantized, x = clip_16_cast_fp16)[name = tensor<string, []>("input_95_cast_fp16")];
            tensor<fp16, [1, 64, 3]> x_63_cast_fp16 = relu(x = input_95_cast_fp16)[name = tensor<string, []>("x_63_cast_fp16")];
            tensor<fp16, []> const_17_to_fp16 = const()[name = tensor<string, []>("const_17_to_fp16"), val = tensor<fp16, []>(-inf)];
            tensor<fp16, [1, 64, 3]> clip_17_cast_fp16 = clip(alpha = const_17_to_fp16, beta = var_729_to_fp16, x = x_63_cast_fp16)[name = tensor<string, []>("clip_17_cast_fp16")];
            tensor<string, []> input_99_pad_type_0 = const()[name = tensor<string, []>("input_99_pad_type_0"), val = tensor<string, []>("custom")];
            tensor<int32, [2]> input_99_pad_0 = const()[name = tensor<string, []>("input_99_pad_0"), val = tensor<int32, [2]>([1, 1])];
            tensor<int32, [1]> input_99_strides_0 = const()[name = tensor<string, []>("input_99_strides_0"), val = tensor<int32, [1]>([1])];
            tensor<int32, [1]> input_99_dilations_0 = const()[name = tensor<string, []>("input_99_dilations_0"), val = tensor<int32, [1]>([1])];
            tensor<int32, []> input_99_groups_0 = const()[name = tensor<string, []>("input_99_groups_0"), val = tensor<int32, []>(1)];
            tensor<fp16, [1, 64, 3]> input_99_cast_fp16 = conv(bias = encoder_layers_4_bias_to_fp16, dilations = input_99_dilations_0, groups = input_99_groups_0, pad = input_99_pad_0, pad_type = input_99_pad_type_0, strides = input_99_strides_0, weight = encoder_layers_4_weight_to_fp16_quantized, x = clip_17_cast_fp16)[name = tensor<string, []>("input_99_cast_fp16")];
            tensor<fp16, [1, 64, 3]> x_65_cast_fp16 = relu(x = input_99_cast_fp16)[name = tensor<string, []>("x_65_cast_fp16")];
            tensor<fp16, []> const_18_to_fp16 = const()[name = tensor<string, []>("const_18_to_fp16"), val = tensor<fp16, []>(-inf)];
            tensor<fp16, [1, 64, 3]> clip_18_cast_fp16 = clip(alpha = const_18_to_fp16, beta = var_729_to_fp16, x = x_65_cast_fp16)[name = tensor<string, []>("clip_18_cast_fp16")];
            tensor<string, []> input_103_pad_type_0 = const()[name = tensor<string, []>("input_103_pad_type_0"), val = tensor<string, []>("custom")];
            tensor<int32, [2]> input_103_pad_0 = const()[name = tensor<string, []>("input_103_pad_0"), val = tensor<int32, [2]>([1, 1])];
            tensor<int32, [1]> input_103_strides_0 = const()[name = tensor<string, []>("input_103_strides_0"), val = tensor<int32, [1]>([1])];
            tensor<int32, [1]> input_103_dilations_0 = const()[name = tensor<string, []>("input_103_dilations_0"), val = tensor<int32, [1]>([1])];
            tensor<int32, []> input_103_groups_0 = const()[name = tensor<string, []>("input_103_groups_0"), val = tensor<int32, []>(1)];
            tensor<fp16, [1, 128, 3]> input_103_cast_fp16 = conv(bias = encoder_layers_6_bias_to_fp16, dilations = input_103_dilations_0, groups = input_103_groups_0, pad = input_103_pad_0, pad_type = input_103_pad_type_0, strides = input_103_strides_0, weight = encoder_layers_6_weight_to_fp16_quantized, x = clip_18_cast_fp16)[name = tensor<string, []>("input_103_cast_fp16")];
            tensor<fp16, [1, 128, 3]> x_67_cast_fp16 = relu(x = input_103_cast_fp16)[name = tensor<string, []>("x_67_cast_fp16")];
            tensor<fp16, []> const_19_to_fp16 = const()[name = tensor<string, []>("const_19_to_fp16"), val = tensor<fp16, []>(-inf)];
            tensor<fp16, [1, 128, 3]> clip_19_cast_fp16 = clip(alpha = const_19_to_fp16, beta = var_729_to_fp16, x = x_67_cast_fp16)[name = tensor<string, []>("clip_19_cast_fp16")];
            tensor<int32, [3]> transpose_8_perm_0 = const()[name = tensor<string, []>("transpose_8_perm_0"), val = tensor<int32, [3]>([2, 0, 1])];
            tensor<string, []> transpose_8_cast_fp16_to_fp32_dtype_0 = const()[name = tensor<string, []>("transpose_8_cast_fp16_to_fp32_dtype_0"), val = tensor<string, []>("fp32")];
            tensor<int32, [1]> lstm_out_9_batch_first_lstm_h0_squeeze_axes_0 = const()[name = tensor<string, []>("lstm_out_9_batch_first_lstm_h0_squeeze_axes_0"), val = tensor<int32, [1]>([0])];
            tensor<fp16, [1, 128]> lstm_out_9_batch_first_lstm_h0_squeeze_cast_fp16 = squeeze(axes = lstm_out_9_batch_first_lstm_h0_squeeze_axes_0, x = hn_7_cast_fp16)[name = tensor<string, []>("lstm_out_9_batch_first_lstm_h0_squeeze_cast_fp16")];
            tensor<string, []> lstm_out_9_batch_first_lstm_h0_squeeze_cast_fp16_to_fp32_dtype_0 = const()[name = tensor<string, []>("lstm_out_9_batch_first_lstm_h0_squeeze_cast_fp16_to_fp32_dtype_0"), val = tensor<string, []>("fp32")];
            tensor<int32, [1]> lstm_out_9_batch_first_lstm_c0_squeeze_axes_0 = const()[name = tensor<string, []>("lstm_out_9_batch_first_lstm_c0_squeeze_axes_0"), val = tensor<int32, [1]>([0])];
            tensor<fp16, [1, 128]> lstm_out_9_batch_first_lstm_c0_squeeze_cast_fp16 = squeeze(axes = lstm_out_9_batch_first_lstm_c0_squeeze_axes_0, x = cn_7_cast_fp16)[name = tensor<string, []>("lstm_out_9_batch_first_lstm_c0_squeeze_cast_fp16")];
            tensor<string, []> lstm_out_9_batch_first_lstm_c0_squeeze_cast_fp16_to_fp32_dtype_0 = const()[name = tensor<string, []>("lstm_out_9_batch_first_lstm_c0_squeeze_cast_fp16_to_fp32_dtype_0"), val = tensor<string, []>("fp32")];
            tensor<string, []> lstm_out_9_batch_first_direction_0 = const()[name = tensor<string, []>("lstm_out_9_batch_first_direction_0"), val = tensor<string, []>("forward")];
            tensor<bool, []> lstm_out_9_batch_first_output_sequence_0 = const()[name = tensor<string, []>("lstm_out_9_batch_first_output_sequence_0"), val = tensor<bool, []>(true)];
            tensor<string, []> lstm_out_9_batch_first_recurrent_activation_0 = const()[name = tensor<string, []>("lstm_out_9_batch_first_recurrent_activation_0"), val = tensor<string, []>("sigmoid")];
            tensor<string, []> lstm_out_9_batch_first_cell_activation_0 = const()[name = tensor<string, []>("lstm_out_9_batch_first_cell_activation_0"), val = tensor<string, []>("tanh")];
            tensor<string, []> lstm_out_9_batch_first_activation_0 = const()[name = tensor<string, []>("lstm_out_9_batch_first_activation_0"), val = tensor<string, []>("tanh")];
            tensor<fp16, [3, 1, 128]> transpose_8_cast_fp16 = transpose(perm = transpose_8_perm_0, x = clip_19_cast_fp16)[name = tensor<string, []>("transpose_7")];
            tensor<fp32, [3, 1, 128]> transpose_8_cast_fp16_to_fp32 = cast(dtype = transpose_8_cast_fp16_to_fp32_dtype_0, x = transpose_8_cast_fp16)[name = tensor<string, []>("cast_24")];
            tensor<fp32, [1, 128]> lstm_out_9_batch_first_lstm_h0_squeeze_cast_fp16_to_fp32 = cast(dtype = lstm_out_9_batch_first_lstm_h0_squeeze_cast_fp16_to_fp32_dtype_0, x = lstm_out_9_batch_first_lstm_h0_squeeze_cast_fp16)[name = tensor<string, []>("cast_25")];
            tensor<fp32, [1, 128]> lstm_out_9_batch_first_lstm_c0_squeeze_cast_fp16_to_fp32 = cast(dtype = lstm_out_9_batch_first_lstm_c0_squeeze_cast_fp16_to_fp32_dtype_0, x = lstm_out_9_batch_first_lstm_c0_squeeze_cast_fp16)[name = tensor<string, []>("cast_26")];
            tensor<fp32, [3, 1, 128]> lstm_out_9_batch_first_0, tensor<fp32, [1, 128]> lstm_out_9_batch_first_1, tensor<fp32, [1, 128]> lstm_out_9_batch_first_2 = lstm(activation = lstm_out_9_batch_first_activation_0, bias = concat_0, cell_activation = lstm_out_9_batch_first_cell_activation_0, direction = lstm_out_9_batch_first_direction_0, initial_c = lstm_out_9_batch_first_lstm_c0_squeeze_cast_fp16_to_fp32, initial_h = lstm_out_9_batch_first_lstm_h0_squeeze_cast_fp16_to_fp32, output_sequence = lstm_out_9_batch_first_output_sequence_0, recurrent_activation = lstm_out_9_batch_first_recurrent_activation_0, weight_hh = concat_2_quantized, weight_ih = concat_1_quantized, x = transpose_8_cast_fp16_to_fp32)[name = tensor<string, []>("lstm_out_9_batch_first")];
            tensor<int32, [3]> transpose_9_perm_0 = const()[name = tensor<string, []>("transpose_9_perm_0"), val = tensor<int32, [3]>([1, 2, 0])];
            tensor<string, []> lstm_out_9_batch_first_0_to_fp16_dtype_0 = const()[name = tensor<string, []>("lstm_out_9_batch_first_0_to_fp16_dtype_0"), val = tensor<string, []>("fp16")];
            tensor<int32, [1]> hn_9_axes_0 = const()[name = tensor<string, []>("hn_9_axes_0"), val = tensor<int32, [1]>([0])];
            tensor<string, []> lstm_out_9_batch_first_1_to_fp16_dtype_0 = const()[name = tensor<string, []>("lstm_out_9_batch_first_1_to_fp16_dtype_0"), val = tensor<string, []>("fp16")];
            tensor<fp16, [1, 128]> lstm_out_9_batch_first_1_to_fp16 = cast(dtype = lstm_out_9_batch_first_1_to_fp16_dtype_0, x = lstm_out_9_batch_first_1)[name = tensor<string, []>("cast_23")];
            tensor<fp16, [1, 1, 128]> hn_9_cast_fp16 = expand_dims(axes = hn_9_axes_0, x = lstm_out_9_batch_first_1_to_fp16)[name = tensor<string, []>("hn_9_cast_fp16")];
            tensor<int32, [1]> cn_9_axes_0 = const()[name = tensor<string, []>("cn_9_axes_0"), val = tensor<int32, [1]>([0])];
            tensor<string, []> lstm_out_9_batch_first_2_to_fp16_dtype_0 = const()[name = tensor<string, []>("lstm_out_9_batch_first_2_to_fp16_dtype_0"), val = tensor<string, []>("fp16")];
            tensor<fp16, [1, 128]> lstm_out_9_batch_first_2_to_fp16 = cast(dtype = lstm_out_9_batch_first_2_to_fp16_dtype_0, x = lstm_out_9_batch_first_2)[name = tensor<string, []>("cast_22")];
            tensor<fp16, [1, 1, 128]> cn_9_cast_fp16 = expand_dims(axes = cn_9_axes_0, x = lstm_out_9_batch_first_2_to_fp16)[name = tensor<string, []>("cn_9_cast_fp16")];
            tensor<string, []> input_109_pad_type_0 = const()[name = tensor<string, []>("input_109_pad_type_0"), val = tensor<string, []>("valid")];
            tensor<int32, [1]> input_109_strides_0 = const()[name = tensor<string, []>("input_109_strides_0"), val = tensor<int32, [1]>([1])];
            tensor<int32, [2]> input_109_pad_0 = const()[name = tensor<string, []>("input_109_pad_0"), val = tensor<int32, [2]>([0, 0])];
            tensor<int32, [1]> input_109_dilations_0 = const()[name = tensor<string, []>("input_109_dilations_0"), val = tensor<int32, [1]>([1])];
            tensor<int32, []> input_109_groups_0 = const()[name = tensor<string, []>("input_109_groups_0"), val = tensor<int32, []>(1)];
            tensor<fp16, [3, 1, 128]> lstm_out_9_batch_first_0_to_fp16 = cast(dtype = lstm_out_9_batch_first_0_to_fp16_dtype_0, x = lstm_out_9_batch_first_0)[name = tensor<string, []>("cast_21")];
            tensor<fp16, [1, 128, 3]> transpose_9_cast_fp16 = transpose(perm = transpose_9_perm_0, x = lstm_out_9_batch_first_0_to_fp16)[name = tensor<string, []>("transpose_6")];
            tensor<fp16, [1, 1, 3]> input_109_cast_fp16 = conv(bias = decoder_final_conv_bias_to_fp16, dilations = input_109_dilations_0, groups = input_109_groups_0, pad = input_109_pad_0, pad_type = input_109_pad_type_0, strides = input_109_strides_0, weight = decoder_final_conv_weight_to_fp16, x = transpose_9_cast_fp16)[name = tensor<string, []>("input_109_cast_fp16")];
            tensor<fp16, [1, 1, 3]> out_9_cast_fp16 = sigmoid(x = input_109_cast_fp16)[name = tensor<string, []>("out_9_cast_fp16")];
            tensor<int32, [1]> var_814_axes_0 = const()[name = tensor<string, []>("op_814_axes_0"), val = tensor<int32, [1]>([2])];
            tensor<bool, []> var_814_keep_dims_0 = const()[name = tensor<string, []>("op_814_keep_dims_0"), val = tensor<bool, []>(true)];
            tensor<fp16, [1, 1, 1]> var_814_cast_fp16 = reduce_mean(axes = var_814_axes_0, keep_dims = var_814_keep_dims_0, x = out_9_cast_fp16)[name = tensor<string, []>("op_814_cast_fp16")];
            tensor<int32, [1]> x_73_axes_0 = const()[name = tensor<string, []>("x_73_axes_0"), val = tensor<int32, [1]>([1])];
            tensor<fp16, [1, 1, 576]> x_73_cast_fp16 = expand_dims(axes = x_73_axes_0, x = x_71_cast_fp16)[name = tensor<string, []>("x_73_cast_fp16")];
            tensor<string, []> stft_out_11_pad_type_0 = const()[name = tensor<string, []>("stft_out_11_pad_type_0"), val = tensor<string, []>("custom")];
            tensor<int32, [2]> stft_out_11_pad_0 = const()[name = tensor<string, []>("stft_out_11_pad_0"), val = tensor<int32, [2]>([128, 128])];
            tensor<int32, [1]> stft_out_11_strides_0 = const()[name = tensor<string, []>("stft_out_11_strides_0"), val = tensor<int32, [1]>([256])];
            tensor<int32, [1]> stft_out_11_dilations_0 = const()[name = tensor<string, []>("stft_out_11_dilations_0"), val = tensor<int32, [1]>([1])];
            tensor<int32, []> stft_out_11_groups_0 = const()[name = tensor<string, []>("stft_out_11_groups_0"), val = tensor<int32, []>(1)];
            tensor<fp16, [1, 258, 3]> stft_out_11_cast_fp16 = conv(dilations = stft_out_11_dilations_0, groups = stft_out_11_groups_0, pad = stft_out_11_pad_0, pad_type = stft_out_11_pad_type_0, strides = stft_out_11_strides_0, weight = stft_forward_basis_to_fp16_quantized, x = x_73_cast_fp16)[name = tensor<string, []>("stft_out_11_cast_fp16")];
            tensor<int32, [3]> var_839_begin_0 = const()[name = tensor<string, []>("op_839_begin_0"), val = tensor<int32, [3]>([0, 0, 0])];
            tensor<int32, [3]> var_839_end_0 = const()[name = tensor<string, []>("op_839_end_0"), val = tensor<int32, [3]>([1, 129, 3])];
            tensor<bool, [3]> var_839_end_mask_0 = const()[name = tensor<string, []>("op_839_end_mask_0"), val = tensor<bool, [3]>([true, false, true])];
            tensor<fp16, [1, 129, 3]> var_839_cast_fp16 = slice_by_index(begin = var_839_begin_0, end = var_839_end_0, end_mask = var_839_end_mask_0, x = stft_out_11_cast_fp16)[name = tensor<string, []>("op_839_cast_fp16")];
            tensor<int32, [3]> var_842_begin_0 = const()[name = tensor<string, []>("op_842_begin_0"), val = tensor<int32, [3]>([0, 129, 0])];
            tensor<int32, [3]> var_842_end_0 = const()[name = tensor<string, []>("op_842_end_0"), val = tensor<int32, [3]>([1, 258, 3])];
            tensor<bool, [3]> var_842_end_mask_0 = const()[name = tensor<string, []>("op_842_end_mask_0"), val = tensor<bool, [3]>([true, true, true])];
            tensor<fp16, [1, 129, 3]> var_842_cast_fp16 = slice_by_index(begin = var_842_begin_0, end = var_842_end_0, end_mask = var_842_end_mask_0, x = stft_out_11_cast_fp16)[name = tensor<string, []>("op_842_cast_fp16")];
            tensor<fp16, []> var_821_promoted_to_fp16 = const()[name = tensor<string, []>("op_821_promoted_to_fp16"), val = tensor<fp16, []>(0x1p+1)];
            tensor<fp16, [1, 129, 3]> var_844_cast_fp16 = pow(x = var_839_cast_fp16, y = var_821_promoted_to_fp16)[name = tensor<string, []>("op_844_cast_fp16")];
            tensor<fp16, []> var_821_promoted_1_to_fp16 = const()[name = tensor<string, []>("op_821_promoted_1_to_fp16"), val = tensor<fp16, []>(0x1p+1)];
            tensor<fp16, [1, 129, 3]> var_845_cast_fp16 = pow(x = var_842_cast_fp16, y = var_821_promoted_1_to_fp16)[name = tensor<string, []>("op_845_cast_fp16")];
            tensor<fp16, [1, 129, 3]> var_846_cast_fp16 = add(x = var_844_cast_fp16, y = var_845_cast_fp16)[name = tensor<string, []>("op_846_cast_fp16")];
            tensor<fp16, []> var_847_to_fp16 = const()[name = tensor<string, []>("op_847_to_fp16"), val = tensor<fp16, []>(0x1p-24)];
            tensor<fp16, [1, 129, 3]> var_848_cast_fp16 = add(x = var_846_cast_fp16, y = var_847_to_fp16)[name = tensor<string, []>("op_848_cast_fp16")];
            tensor<fp16, [1, 129, 3]> magnitude_11_cast_fp16 = sqrt(x = var_848_cast_fp16)[name = tensor<string, []>("magnitude_11_cast_fp16")];
            tensor<fp16, []> var_850_to_fp16 = const()[name = tensor<string, []>("op_850_to_fp16"), val = tensor<fp16, []>(0x1p-24)];
            tensor<fp16, [1, 129, 3]> var_851_cast_fp16 = add(x = magnitude_11_cast_fp16, y = var_850_to_fp16)[name = tensor<string, []>("op_851_cast_fp16")];
            tensor<fp16, []> input_111_epsilon_0_to_fp16 = const()[name = tensor<string, []>("input_111_epsilon_0_to_fp16"), val = tensor<fp16, []>(0x0p+0)];
            tensor<fp16, [1, 129, 3]> input_111_cast_fp16 = log(epsilon = input_111_epsilon_0_to_fp16, x = var_851_cast_fp16)[name = tensor<string, []>("input_111_cast_fp16")];
            tensor<string, []> input_113_pad_type_0 = const()[name = tensor<string, []>("input_113_pad_type_0"), val = tensor<string, []>("custom")];
            tensor<int32, [2]> input_113_pad_0 = const()[name = tensor<string, []>("input_113_pad_0"), val = tensor<int32, [2]>([1, 1])];
            tensor<int32, [1]> input_113_strides_0 = const()[name = tensor<string, []>("input_113_strides_0"), val = tensor<int32, [1]>([1])];
            tensor<int32, [1]> input_113_dilations_0 = const()[name = tensor<string, []>("input_113_dilations_0"), val = tensor<int32, [1]>([1])];
            tensor<int32, []> input_113_groups_0 = const()[name = tensor<string, []>("input_113_groups_0"), val = tensor<int32, []>(1)];
            tensor<fp16, [1, 128, 3]> input_113_cast_fp16 = conv(bias = encoder_layers_0_bias_to_fp16, dilations = input_113_dilations_0, groups = input_113_groups_0, pad = input_113_pad_0, pad_type = input_113_pad_type_0, strides = input_113_strides_0, weight = encoder_layers_0_weight_to_fp16_quantized, x = input_111_cast_fp16)[name = tensor<string, []>("input_113_cast_fp16")];
            tensor<fp16, [1, 128, 3]> x_75_cast_fp16 = relu(x = input_113_cast_fp16)[name = tensor<string, []>("x_75_cast_fp16")];
            tensor<fp16, []> const_20_to_fp16 = const()[name = tensor<string, []>("const_20_to_fp16"), val = tensor<fp16, []>(-inf)];
            tensor<fp16, []> var_853_to_fp16 = const()[name = tensor<string, []>("op_853_to_fp16"), val = tensor<fp16, []>(0x1.388p+13)];
            tensor<fp16, [1, 128, 3]> clip_20_cast_fp16 = clip(alpha = const_20_to_fp16, beta = var_853_to_fp16, x = x_75_cast_fp16)[name = tensor<string, []>("clip_20_cast_fp16")];
            tensor<string, []> input_117_pad_type_0 = const()[name = tensor<string, []>("input_117_pad_type_0"), val = tensor<string, []>("custom")];
            tensor<int32, [2]> input_117_pad_0 = const()[name = tensor<string, []>("input_117_pad_0"), val = tensor<int32, [2]>([1, 1])];
            tensor<int32, [1]> input_117_strides_0 = const()[name = tensor<string, []>("input_117_strides_0"), val = tensor<int32, [1]>([1])];
            tensor<int32, [1]> input_117_dilations_0 = const()[name = tensor<string, []>("input_117_dilations_0"), val = tensor<int32, [1]>([1])];
            tensor<int32, []> input_117_groups_0 = const()[name = tensor<string, []>("input_117_groups_0"), val = tensor<int32, []>(1)];
            tensor<fp16, [1, 64, 3]> input_117_cast_fp16 = conv(bias = encoder_layers_2_bias_to_fp16, dilations = input_117_dilations_0, groups = input_117_groups_0, pad = input_117_pad_0, pad_type = input_117_pad_type_0, strides = input_117_strides_0, weight = encoder_layers_2_weight_to_fp16_quantized, x = clip_20_cast_fp16)[name = tensor<string, []>("input_117_cast_fp16")];
            tensor<fp16, [1, 64, 3]> x_77_cast_fp16 = relu(x = input_117_cast_fp16)[name = tensor<string, []>("x_77_cast_fp16")];
            tensor<fp16, []> const_21_to_fp16 = const()[name = tensor<string, []>("const_21_to_fp16"), val = tensor<fp16, []>(-inf)];
            tensor<fp16, [1, 64, 3]> clip_21_cast_fp16 = clip(alpha = const_21_to_fp16, beta = var_853_to_fp16, x = x_77_cast_fp16)[name = tensor<string, []>("clip_21_cast_fp16")];
            tensor<string, []> input_121_pad_type_0 = const()[name = tensor<string, []>("input_121_pad_type_0"), val = tensor<string, []>("custom")];
            tensor<int32, [2]> input_121_pad_0 = const()[name = tensor<string, []>("input_121_pad_0"), val = tensor<int32, [2]>([1, 1])];
            tensor<int32, [1]> input_121_strides_0 = const()[name = tensor<string, []>("input_121_strides_0"), val = tensor<int32, [1]>([1])];
            tensor<int32, [1]> input_121_dilations_0 = const()[name = tensor<string, []>("input_121_dilations_0"), val = tensor<int32, [1]>([1])];
            tensor<int32, []> input_121_groups_0 = const()[name = tensor<string, []>("input_121_groups_0"), val = tensor<int32, []>(1)];
            tensor<fp16, [1, 64, 3]> input_121_cast_fp16 = conv(bias = encoder_layers_4_bias_to_fp16, dilations = input_121_dilations_0, groups = input_121_groups_0, pad = input_121_pad_0, pad_type = input_121_pad_type_0, strides = input_121_strides_0, weight = encoder_layers_4_weight_to_fp16_quantized, x = clip_21_cast_fp16)[name = tensor<string, []>("input_121_cast_fp16")];
            tensor<fp16, [1, 64, 3]> x_79_cast_fp16 = relu(x = input_121_cast_fp16)[name = tensor<string, []>("x_79_cast_fp16")];
            tensor<fp16, []> const_22_to_fp16 = const()[name = tensor<string, []>("const_22_to_fp16"), val = tensor<fp16, []>(-inf)];
            tensor<fp16, [1, 64, 3]> clip_22_cast_fp16 = clip(alpha = const_22_to_fp16, beta = var_853_to_fp16, x = x_79_cast_fp16)[name = tensor<string, []>("clip_22_cast_fp16")];
            tensor<string, []> input_125_pad_type_0 = const()[name = tensor<string, []>("input_125_pad_type_0"), val = tensor<string, []>("custom")];
            tensor<int32, [2]> input_125_pad_0 = const()[name = tensor<string, []>("input_125_pad_0"), val = tensor<int32, [2]>([1, 1])];
            tensor<int32, [1]> input_125_strides_0 = const()[name = tensor<string, []>("input_125_strides_0"), val = tensor<int32, [1]>([1])];
            tensor<int32, [1]> input_125_dilations_0 = const()[name = tensor<string, []>("input_125_dilations_0"), val = tensor<int32, [1]>([1])];
            tensor<int32, []> input_125_groups_0 = const()[name = tensor<string, []>("input_125_groups_0"), val = tensor<int32, []>(1)];
            tensor<fp16, [1, 128, 3]> input_125_cast_fp16 = conv(bias = encoder_layers_6_bias_to_fp16, dilations = input_125_dilations_0, groups = input_125_groups_0, pad = input_125_pad_0, pad_type = input_125_pad_type_0, strides = input_125_strides_0, weight = encoder_layers_6_weight_to_fp16_quantized, x = clip_22_cast_fp16)[name = tensor<string, []>("input_125_cast_fp16")];
            tensor<fp16, [1, 128, 3]> x_81_cast_fp16 = relu(x = input_125_cast_fp16)[name = tensor<string, []>("x_81_cast_fp16")];
            tensor<fp16, []> const_23_to_fp16 = const()[name = tensor<string, []>("const_23_to_fp16"), val = tensor<fp16, []>(-inf)];
            tensor<fp16, [1, 128, 3]> clip_23_cast_fp16 = clip(alpha = const_23_to_fp16, beta = var_853_to_fp16, x = x_81_cast_fp16)[name = tensor<string, []>("clip_23_cast_fp16")];
            tensor<int32, [3]> transpose_10_perm_0 = const()[name = tensor<string, []>("transpose_10_perm_0"), val = tensor<int32, [3]>([2, 0, 1])];
            tensor<string, []> transpose_10_cast_fp16_to_fp32_dtype_0 = const()[name = tensor<string, []>("transpose_10_cast_fp16_to_fp32_dtype_0"), val = tensor<string, []>("fp32")];
            tensor<int32, [1]> lstm_out_11_batch_first_lstm_h0_squeeze_axes_0 = const()[name = tensor<string, []>("lstm_out_11_batch_first_lstm_h0_squeeze_axes_0"), val = tensor<int32, [1]>([0])];
            tensor<fp16, [1, 128]> lstm_out_11_batch_first_lstm_h0_squeeze_cast_fp16 = squeeze(axes = lstm_out_11_batch_first_lstm_h0_squeeze_axes_0, x = hn_9_cast_fp16)[name = tensor<string, []>("lstm_out_11_batch_first_lstm_h0_squeeze_cast_fp16")];
            tensor<string, []> lstm_out_11_batch_first_lstm_h0_squeeze_cast_fp16_to_fp32_dtype_0 = const()[name = tensor<string, []>("lstm_out_11_batch_first_lstm_h0_squeeze_cast_fp16_to_fp32_dtype_0"), val = tensor<string, []>("fp32")];
            tensor<int32, [1]> lstm_out_11_batch_first_lstm_c0_squeeze_axes_0 = const()[name = tensor<string, []>("lstm_out_11_batch_first_lstm_c0_squeeze_axes_0"), val = tensor<int32, [1]>([0])];
            tensor<fp16, [1, 128]> lstm_out_11_batch_first_lstm_c0_squeeze_cast_fp16 = squeeze(axes = lstm_out_11_batch_first_lstm_c0_squeeze_axes_0, x = cn_9_cast_fp16)[name = tensor<string, []>("lstm_out_11_batch_first_lstm_c0_squeeze_cast_fp16")];
            tensor<string, []> lstm_out_11_batch_first_lstm_c0_squeeze_cast_fp16_to_fp32_dtype_0 = const()[name = tensor<string, []>("lstm_out_11_batch_first_lstm_c0_squeeze_cast_fp16_to_fp32_dtype_0"), val = tensor<string, []>("fp32")];
            tensor<string, []> lstm_out_11_batch_first_direction_0 = const()[name = tensor<string, []>("lstm_out_11_batch_first_direction_0"), val = tensor<string, []>("forward")];
            tensor<bool, []> lstm_out_11_batch_first_output_sequence_0 = const()[name = tensor<string, []>("lstm_out_11_batch_first_output_sequence_0"), val = tensor<bool, []>(true)];
            tensor<string, []> lstm_out_11_batch_first_recurrent_activation_0 = const()[name = tensor<string, []>("lstm_out_11_batch_first_recurrent_activation_0"), val = tensor<string, []>("sigmoid")];
            tensor<string, []> lstm_out_11_batch_first_cell_activation_0 = const()[name = tensor<string, []>("lstm_out_11_batch_first_cell_activation_0"), val = tensor<string, []>("tanh")];
            tensor<string, []> lstm_out_11_batch_first_activation_0 = const()[name = tensor<string, []>("lstm_out_11_batch_first_activation_0"), val = tensor<string, []>("tanh")];
            tensor<fp16, [3, 1, 128]> transpose_10_cast_fp16 = transpose(perm = transpose_10_perm_0, x = clip_23_cast_fp16)[name = tensor<string, []>("transpose_5")];
            tensor<fp32, [3, 1, 128]> transpose_10_cast_fp16_to_fp32 = cast(dtype = transpose_10_cast_fp16_to_fp32_dtype_0, x = transpose_10_cast_fp16)[name = tensor<string, []>("cast_18")];
            tensor<fp32, [1, 128]> lstm_out_11_batch_first_lstm_h0_squeeze_cast_fp16_to_fp32 = cast(dtype = lstm_out_11_batch_first_lstm_h0_squeeze_cast_fp16_to_fp32_dtype_0, x = lstm_out_11_batch_first_lstm_h0_squeeze_cast_fp16)[name = tensor<string, []>("cast_19")];
            tensor<fp32, [1, 128]> lstm_out_11_batch_first_lstm_c0_squeeze_cast_fp16_to_fp32 = cast(dtype = lstm_out_11_batch_first_lstm_c0_squeeze_cast_fp16_to_fp32_dtype_0, x = lstm_out_11_batch_first_lstm_c0_squeeze_cast_fp16)[name = tensor<string, []>("cast_20")];
            tensor<fp32, [3, 1, 128]> lstm_out_11_batch_first_0, tensor<fp32, [1, 128]> lstm_out_11_batch_first_1, tensor<fp32, [1, 128]> lstm_out_11_batch_first_2 = lstm(activation = lstm_out_11_batch_first_activation_0, bias = concat_0, cell_activation = lstm_out_11_batch_first_cell_activation_0, direction = lstm_out_11_batch_first_direction_0, initial_c = lstm_out_11_batch_first_lstm_c0_squeeze_cast_fp16_to_fp32, initial_h = lstm_out_11_batch_first_lstm_h0_squeeze_cast_fp16_to_fp32, output_sequence = lstm_out_11_batch_first_output_sequence_0, recurrent_activation = lstm_out_11_batch_first_recurrent_activation_0, weight_hh = concat_2_quantized, weight_ih = concat_1_quantized, x = transpose_10_cast_fp16_to_fp32)[name = tensor<string, []>("lstm_out_11_batch_first")];
            tensor<int32, [3]> transpose_11_perm_0 = const()[name = tensor<string, []>("transpose_11_perm_0"), val = tensor<int32, [3]>([1, 2, 0])];
            tensor<string, []> lstm_out_11_batch_first_0_to_fp16_dtype_0 = const()[name = tensor<string, []>("lstm_out_11_batch_first_0_to_fp16_dtype_0"), val = tensor<string, []>("fp16")];
            tensor<int32, [1]> hn_11_axes_0 = const()[name = tensor<string, []>("hn_11_axes_0"), val = tensor<int32, [1]>([0])];
            tensor<string, []> lstm_out_11_batch_first_1_to_fp16_dtype_0 = const()[name = tensor<string, []>("lstm_out_11_batch_first_1_to_fp16_dtype_0"), val = tensor<string, []>("fp16")];
            tensor<fp16, [1, 128]> lstm_out_11_batch_first_1_to_fp16 = cast(dtype = lstm_out_11_batch_first_1_to_fp16_dtype_0, x = lstm_out_11_batch_first_1)[name = tensor<string, []>("cast_17")];
            tensor<fp16, [1, 1, 128]> hn_11_cast_fp16 = expand_dims(axes = hn_11_axes_0, x = lstm_out_11_batch_first_1_to_fp16)[name = tensor<string, []>("hn_11_cast_fp16")];
            tensor<int32, [1]> cn_11_axes_0 = const()[name = tensor<string, []>("cn_11_axes_0"), val = tensor<int32, [1]>([0])];
            tensor<string, []> lstm_out_11_batch_first_2_to_fp16_dtype_0 = const()[name = tensor<string, []>("lstm_out_11_batch_first_2_to_fp16_dtype_0"), val = tensor<string, []>("fp16")];
            tensor<fp16, [1, 128]> lstm_out_11_batch_first_2_to_fp16 = cast(dtype = lstm_out_11_batch_first_2_to_fp16_dtype_0, x = lstm_out_11_batch_first_2)[name = tensor<string, []>("cast_16")];
            tensor<fp16, [1, 1, 128]> cn_11_cast_fp16 = expand_dims(axes = cn_11_axes_0, x = lstm_out_11_batch_first_2_to_fp16)[name = tensor<string, []>("cn_11_cast_fp16")];
            tensor<string, []> input_131_pad_type_0 = const()[name = tensor<string, []>("input_131_pad_type_0"), val = tensor<string, []>("valid")];
            tensor<int32, [1]> input_131_strides_0 = const()[name = tensor<string, []>("input_131_strides_0"), val = tensor<int32, [1]>([1])];
            tensor<int32, [2]> input_131_pad_0 = const()[name = tensor<string, []>("input_131_pad_0"), val = tensor<int32, [2]>([0, 0])];
            tensor<int32, [1]> input_131_dilations_0 = const()[name = tensor<string, []>("input_131_dilations_0"), val = tensor<int32, [1]>([1])];
            tensor<int32, []> input_131_groups_0 = const()[name = tensor<string, []>("input_131_groups_0"), val = tensor<int32, []>(1)];
            tensor<fp16, [3, 1, 128]> lstm_out_11_batch_first_0_to_fp16 = cast(dtype = lstm_out_11_batch_first_0_to_fp16_dtype_0, x = lstm_out_11_batch_first_0)[name = tensor<string, []>("cast_15")];
            tensor<fp16, [1, 128, 3]> transpose_11_cast_fp16 = transpose(perm = transpose_11_perm_0, x = lstm_out_11_batch_first_0_to_fp16)[name = tensor<string, []>("transpose_4")];
            tensor<fp16, [1, 1, 3]> input_131_cast_fp16 = conv(bias = decoder_final_conv_bias_to_fp16, dilations = input_131_dilations_0, groups = input_131_groups_0, pad = input_131_pad_0, pad_type = input_131_pad_type_0, strides = input_131_strides_0, weight = decoder_final_conv_weight_to_fp16, x = transpose_11_cast_fp16)[name = tensor<string, []>("input_131_cast_fp16")];
            tensor<fp16, [1, 1, 3]> out_11_cast_fp16 = sigmoid(x = input_131_cast_fp16)[name = tensor<string, []>("out_11_cast_fp16")];
            tensor<int32, [1]> var_938_axes_0 = const()[name = tensor<string, []>("op_938_axes_0"), val = tensor<int32, [1]>([2])];
            tensor<bool, []> var_938_keep_dims_0 = const()[name = tensor<string, []>("op_938_keep_dims_0"), val = tensor<bool, []>(true)];
            tensor<fp16, [1, 1, 1]> var_938_cast_fp16 = reduce_mean(axes = var_938_axes_0, keep_dims = var_938_keep_dims_0, x = out_11_cast_fp16)[name = tensor<string, []>("op_938_cast_fp16")];
            tensor<int32, [1]> x_87_axes_0 = const()[name = tensor<string, []>("x_87_axes_0"), val = tensor<int32, [1]>([1])];
            tensor<fp16, [1, 1, 576]> x_87_cast_fp16 = expand_dims(axes = x_87_axes_0, x = x_85_cast_fp16)[name = tensor<string, []>("x_87_cast_fp16")];
            tensor<string, []> stft_out_13_pad_type_0 = const()[name = tensor<string, []>("stft_out_13_pad_type_0"), val = tensor<string, []>("custom")];
            tensor<int32, [2]> stft_out_13_pad_0 = const()[name = tensor<string, []>("stft_out_13_pad_0"), val = tensor<int32, [2]>([128, 128])];
            tensor<int32, [1]> stft_out_13_strides_0 = const()[name = tensor<string, []>("stft_out_13_strides_0"), val = tensor<int32, [1]>([256])];
            tensor<int32, [1]> stft_out_13_dilations_0 = const()[name = tensor<string, []>("stft_out_13_dilations_0"), val = tensor<int32, [1]>([1])];
            tensor<int32, []> stft_out_13_groups_0 = const()[name = tensor<string, []>("stft_out_13_groups_0"), val = tensor<int32, []>(1)];
            tensor<fp16, [1, 258, 3]> stft_out_13_cast_fp16 = conv(dilations = stft_out_13_dilations_0, groups = stft_out_13_groups_0, pad = stft_out_13_pad_0, pad_type = stft_out_13_pad_type_0, strides = stft_out_13_strides_0, weight = stft_forward_basis_to_fp16_quantized, x = x_87_cast_fp16)[name = tensor<string, []>("stft_out_13_cast_fp16")];
            tensor<int32, [3]> var_963_begin_0 = const()[name = tensor<string, []>("op_963_begin_0"), val = tensor<int32, [3]>([0, 0, 0])];
            tensor<int32, [3]> var_963_end_0 = const()[name = tensor<string, []>("op_963_end_0"), val = tensor<int32, [3]>([1, 129, 3])];
            tensor<bool, [3]> var_963_end_mask_0 = const()[name = tensor<string, []>("op_963_end_mask_0"), val = tensor<bool, [3]>([true, false, true])];
            tensor<fp16, [1, 129, 3]> var_963_cast_fp16 = slice_by_index(begin = var_963_begin_0, end = var_963_end_0, end_mask = var_963_end_mask_0, x = stft_out_13_cast_fp16)[name = tensor<string, []>("op_963_cast_fp16")];
            tensor<int32, [3]> var_966_begin_0 = const()[name = tensor<string, []>("op_966_begin_0"), val = tensor<int32, [3]>([0, 129, 0])];
            tensor<int32, [3]> var_966_end_0 = const()[name = tensor<string, []>("op_966_end_0"), val = tensor<int32, [3]>([1, 258, 3])];
            tensor<bool, [3]> var_966_end_mask_0 = const()[name = tensor<string, []>("op_966_end_mask_0"), val = tensor<bool, [3]>([true, true, true])];
            tensor<fp16, [1, 129, 3]> var_966_cast_fp16 = slice_by_index(begin = var_966_begin_0, end = var_966_end_0, end_mask = var_966_end_mask_0, x = stft_out_13_cast_fp16)[name = tensor<string, []>("op_966_cast_fp16")];
            tensor<fp16, []> var_945_promoted_to_fp16 = const()[name = tensor<string, []>("op_945_promoted_to_fp16"), val = tensor<fp16, []>(0x1p+1)];
            tensor<fp16, [1, 129, 3]> var_968_cast_fp16 = pow(x = var_963_cast_fp16, y = var_945_promoted_to_fp16)[name = tensor<string, []>("op_968_cast_fp16")];
            tensor<fp16, []> var_945_promoted_1_to_fp16 = const()[name = tensor<string, []>("op_945_promoted_1_to_fp16"), val = tensor<fp16, []>(0x1p+1)];
            tensor<fp16, [1, 129, 3]> var_969_cast_fp16 = pow(x = var_966_cast_fp16, y = var_945_promoted_1_to_fp16)[name = tensor<string, []>("op_969_cast_fp16")];
            tensor<fp16, [1, 129, 3]> var_970_cast_fp16 = add(x = var_968_cast_fp16, y = var_969_cast_fp16)[name = tensor<string, []>("op_970_cast_fp16")];
            tensor<fp16, []> var_971_to_fp16 = const()[name = tensor<string, []>("op_971_to_fp16"), val = tensor<fp16, []>(0x1p-24)];
            tensor<fp16, [1, 129, 3]> var_972_cast_fp16 = add(x = var_970_cast_fp16, y = var_971_to_fp16)[name = tensor<string, []>("op_972_cast_fp16")];
            tensor<fp16, [1, 129, 3]> magnitude_13_cast_fp16 = sqrt(x = var_972_cast_fp16)[name = tensor<string, []>("magnitude_13_cast_fp16")];
            tensor<fp16, []> var_974_to_fp16 = const()[name = tensor<string, []>("op_974_to_fp16"), val = tensor<fp16, []>(0x1p-24)];
            tensor<fp16, [1, 129, 3]> var_975_cast_fp16 = add(x = magnitude_13_cast_fp16, y = var_974_to_fp16)[name = tensor<string, []>("op_975_cast_fp16")];
            tensor<fp16, []> input_133_epsilon_0_to_fp16 = const()[name = tensor<string, []>("input_133_epsilon_0_to_fp16"), val = tensor<fp16, []>(0x0p+0)];
            tensor<fp16, [1, 129, 3]> input_133_cast_fp16 = log(epsilon = input_133_epsilon_0_to_fp16, x = var_975_cast_fp16)[name = tensor<string, []>("input_133_cast_fp16")];
            tensor<string, []> input_135_pad_type_0 = const()[name = tensor<string, []>("input_135_pad_type_0"), val = tensor<string, []>("custom")];
            tensor<int32, [2]> input_135_pad_0 = const()[name = tensor<string, []>("input_135_pad_0"), val = tensor<int32, [2]>([1, 1])];
            tensor<int32, [1]> input_135_strides_0 = const()[name = tensor<string, []>("input_135_strides_0"), val = tensor<int32, [1]>([1])];
            tensor<int32, [1]> input_135_dilations_0 = const()[name = tensor<string, []>("input_135_dilations_0"), val = tensor<int32, [1]>([1])];
            tensor<int32, []> input_135_groups_0 = const()[name = tensor<string, []>("input_135_groups_0"), val = tensor<int32, []>(1)];
            tensor<fp16, [1, 128, 3]> input_135_cast_fp16 = conv(bias = encoder_layers_0_bias_to_fp16, dilations = input_135_dilations_0, groups = input_135_groups_0, pad = input_135_pad_0, pad_type = input_135_pad_type_0, strides = input_135_strides_0, weight = encoder_layers_0_weight_to_fp16_quantized, x = input_133_cast_fp16)[name = tensor<string, []>("input_135_cast_fp16")];
            tensor<fp16, [1, 128, 3]> x_89_cast_fp16 = relu(x = input_135_cast_fp16)[name = tensor<string, []>("x_89_cast_fp16")];
            tensor<fp16, []> const_24_to_fp16 = const()[name = tensor<string, []>("const_24_to_fp16"), val = tensor<fp16, []>(-inf)];
            tensor<fp16, []> var_977_to_fp16 = const()[name = tensor<string, []>("op_977_to_fp16"), val = tensor<fp16, []>(0x1.388p+13)];
            tensor<fp16, [1, 128, 3]> clip_24_cast_fp16 = clip(alpha = const_24_to_fp16, beta = var_977_to_fp16, x = x_89_cast_fp16)[name = tensor<string, []>("clip_24_cast_fp16")];
            tensor<string, []> input_139_pad_type_0 = const()[name = tensor<string, []>("input_139_pad_type_0"), val = tensor<string, []>("custom")];
            tensor<int32, [2]> input_139_pad_0 = const()[name = tensor<string, []>("input_139_pad_0"), val = tensor<int32, [2]>([1, 1])];
            tensor<int32, [1]> input_139_strides_0 = const()[name = tensor<string, []>("input_139_strides_0"), val = tensor<int32, [1]>([1])];
            tensor<int32, [1]> input_139_dilations_0 = const()[name = tensor<string, []>("input_139_dilations_0"), val = tensor<int32, [1]>([1])];
            tensor<int32, []> input_139_groups_0 = const()[name = tensor<string, []>("input_139_groups_0"), val = tensor<int32, []>(1)];
            tensor<fp16, [1, 64, 3]> input_139_cast_fp16 = conv(bias = encoder_layers_2_bias_to_fp16, dilations = input_139_dilations_0, groups = input_139_groups_0, pad = input_139_pad_0, pad_type = input_139_pad_type_0, strides = input_139_strides_0, weight = encoder_layers_2_weight_to_fp16_quantized, x = clip_24_cast_fp16)[name = tensor<string, []>("input_139_cast_fp16")];
            tensor<fp16, [1, 64, 3]> x_91_cast_fp16 = relu(x = input_139_cast_fp16)[name = tensor<string, []>("x_91_cast_fp16")];
            tensor<fp16, []> const_25_to_fp16 = const()[name = tensor<string, []>("const_25_to_fp16"), val = tensor<fp16, []>(-inf)];
            tensor<fp16, [1, 64, 3]> clip_25_cast_fp16 = clip(alpha = const_25_to_fp16, beta = var_977_to_fp16, x = x_91_cast_fp16)[name = tensor<string, []>("clip_25_cast_fp16")];
            tensor<string, []> input_143_pad_type_0 = const()[name = tensor<string, []>("input_143_pad_type_0"), val = tensor<string, []>("custom")];
            tensor<int32, [2]> input_143_pad_0 = const()[name = tensor<string, []>("input_143_pad_0"), val = tensor<int32, [2]>([1, 1])];
            tensor<int32, [1]> input_143_strides_0 = const()[name = tensor<string, []>("input_143_strides_0"), val = tensor<int32, [1]>([1])];
            tensor<int32, [1]> input_143_dilations_0 = const()[name = tensor<string, []>("input_143_dilations_0"), val = tensor<int32, [1]>([1])];
            tensor<int32, []> input_143_groups_0 = const()[name = tensor<string, []>("input_143_groups_0"), val = tensor<int32, []>(1)];
            tensor<fp16, [1, 64, 3]> input_143_cast_fp16 = conv(bias = encoder_layers_4_bias_to_fp16, dilations = input_143_dilations_0, groups = input_143_groups_0, pad = input_143_pad_0, pad_type = input_143_pad_type_0, strides = input_143_strides_0, weight = encoder_layers_4_weight_to_fp16_quantized, x = clip_25_cast_fp16)[name = tensor<string, []>("input_143_cast_fp16")];
            tensor<fp16, [1, 64, 3]> x_93_cast_fp16 = relu(x = input_143_cast_fp16)[name = tensor<string, []>("x_93_cast_fp16")];
            tensor<fp16, []> const_26_to_fp16 = const()[name = tensor<string, []>("const_26_to_fp16"), val = tensor<fp16, []>(-inf)];
            tensor<fp16, [1, 64, 3]> clip_26_cast_fp16 = clip(alpha = const_26_to_fp16, beta = var_977_to_fp16, x = x_93_cast_fp16)[name = tensor<string, []>("clip_26_cast_fp16")];
            tensor<string, []> input_147_pad_type_0 = const()[name = tensor<string, []>("input_147_pad_type_0"), val = tensor<string, []>("custom")];
            tensor<int32, [2]> input_147_pad_0 = const()[name = tensor<string, []>("input_147_pad_0"), val = tensor<int32, [2]>([1, 1])];
            tensor<int32, [1]> input_147_strides_0 = const()[name = tensor<string, []>("input_147_strides_0"), val = tensor<int32, [1]>([1])];
            tensor<int32, [1]> input_147_dilations_0 = const()[name = tensor<string, []>("input_147_dilations_0"), val = tensor<int32, [1]>([1])];
            tensor<int32, []> input_147_groups_0 = const()[name = tensor<string, []>("input_147_groups_0"), val = tensor<int32, []>(1)];
            tensor<fp16, [1, 128, 3]> input_147_cast_fp16 = conv(bias = encoder_layers_6_bias_to_fp16, dilations = input_147_dilations_0, groups = input_147_groups_0, pad = input_147_pad_0, pad_type = input_147_pad_type_0, strides = input_147_strides_0, weight = encoder_layers_6_weight_to_fp16_quantized, x = clip_26_cast_fp16)[name = tensor<string, []>("input_147_cast_fp16")];
            tensor<fp16, [1, 128, 3]> x_95_cast_fp16 = relu(x = input_147_cast_fp16)[name = tensor<string, []>("x_95_cast_fp16")];
            tensor<fp16, []> const_27_to_fp16 = const()[name = tensor<string, []>("const_27_to_fp16"), val = tensor<fp16, []>(-inf)];
            tensor<fp16, [1, 128, 3]> clip_27_cast_fp16 = clip(alpha = const_27_to_fp16, beta = var_977_to_fp16, x = x_95_cast_fp16)[name = tensor<string, []>("clip_27_cast_fp16")];
            tensor<int32, [3]> transpose_12_perm_0 = const()[name = tensor<string, []>("transpose_12_perm_0"), val = tensor<int32, [3]>([2, 0, 1])];
            tensor<string, []> transpose_12_cast_fp16_to_fp32_dtype_0 = const()[name = tensor<string, []>("transpose_12_cast_fp16_to_fp32_dtype_0"), val = tensor<string, []>("fp32")];
            tensor<int32, [1]> lstm_out_13_batch_first_lstm_h0_squeeze_axes_0 = const()[name = tensor<string, []>("lstm_out_13_batch_first_lstm_h0_squeeze_axes_0"), val = tensor<int32, [1]>([0])];
            tensor<fp16, [1, 128]> lstm_out_13_batch_first_lstm_h0_squeeze_cast_fp16 = squeeze(axes = lstm_out_13_batch_first_lstm_h0_squeeze_axes_0, x = hn_11_cast_fp16)[name = tensor<string, []>("lstm_out_13_batch_first_lstm_h0_squeeze_cast_fp16")];
            tensor<string, []> lstm_out_13_batch_first_lstm_h0_squeeze_cast_fp16_to_fp32_dtype_0 = const()[name = tensor<string, []>("lstm_out_13_batch_first_lstm_h0_squeeze_cast_fp16_to_fp32_dtype_0"), val = tensor<string, []>("fp32")];
            tensor<int32, [1]> lstm_out_13_batch_first_lstm_c0_squeeze_axes_0 = const()[name = tensor<string, []>("lstm_out_13_batch_first_lstm_c0_squeeze_axes_0"), val = tensor<int32, [1]>([0])];
            tensor<fp16, [1, 128]> lstm_out_13_batch_first_lstm_c0_squeeze_cast_fp16 = squeeze(axes = lstm_out_13_batch_first_lstm_c0_squeeze_axes_0, x = cn_11_cast_fp16)[name = tensor<string, []>("lstm_out_13_batch_first_lstm_c0_squeeze_cast_fp16")];
            tensor<string, []> lstm_out_13_batch_first_lstm_c0_squeeze_cast_fp16_to_fp32_dtype_0 = const()[name = tensor<string, []>("lstm_out_13_batch_first_lstm_c0_squeeze_cast_fp16_to_fp32_dtype_0"), val = tensor<string, []>("fp32")];
            tensor<string, []> lstm_out_13_batch_first_direction_0 = const()[name = tensor<string, []>("lstm_out_13_batch_first_direction_0"), val = tensor<string, []>("forward")];
            tensor<bool, []> lstm_out_13_batch_first_output_sequence_0 = const()[name = tensor<string, []>("lstm_out_13_batch_first_output_sequence_0"), val = tensor<bool, []>(true)];
            tensor<string, []> lstm_out_13_batch_first_recurrent_activation_0 = const()[name = tensor<string, []>("lstm_out_13_batch_first_recurrent_activation_0"), val = tensor<string, []>("sigmoid")];
            tensor<string, []> lstm_out_13_batch_first_cell_activation_0 = const()[name = tensor<string, []>("lstm_out_13_batch_first_cell_activation_0"), val = tensor<string, []>("tanh")];
            tensor<string, []> lstm_out_13_batch_first_activation_0 = const()[name = tensor<string, []>("lstm_out_13_batch_first_activation_0"), val = tensor<string, []>("tanh")];
            tensor<fp16, [3, 1, 128]> transpose_12_cast_fp16 = transpose(perm = transpose_12_perm_0, x = clip_27_cast_fp16)[name = tensor<string, []>("transpose_3")];
            tensor<fp32, [3, 1, 128]> transpose_12_cast_fp16_to_fp32 = cast(dtype = transpose_12_cast_fp16_to_fp32_dtype_0, x = transpose_12_cast_fp16)[name = tensor<string, []>("cast_12")];
            tensor<fp32, [1, 128]> lstm_out_13_batch_first_lstm_h0_squeeze_cast_fp16_to_fp32 = cast(dtype = lstm_out_13_batch_first_lstm_h0_squeeze_cast_fp16_to_fp32_dtype_0, x = lstm_out_13_batch_first_lstm_h0_squeeze_cast_fp16)[name = tensor<string, []>("cast_13")];
            tensor<fp32, [1, 128]> lstm_out_13_batch_first_lstm_c0_squeeze_cast_fp16_to_fp32 = cast(dtype = lstm_out_13_batch_first_lstm_c0_squeeze_cast_fp16_to_fp32_dtype_0, x = lstm_out_13_batch_first_lstm_c0_squeeze_cast_fp16)[name = tensor<string, []>("cast_14")];
            tensor<fp32, [3, 1, 128]> lstm_out_13_batch_first_0, tensor<fp32, [1, 128]> lstm_out_13_batch_first_1, tensor<fp32, [1, 128]> lstm_out_13_batch_first_2 = lstm(activation = lstm_out_13_batch_first_activation_0, bias = concat_0, cell_activation = lstm_out_13_batch_first_cell_activation_0, direction = lstm_out_13_batch_first_direction_0, initial_c = lstm_out_13_batch_first_lstm_c0_squeeze_cast_fp16_to_fp32, initial_h = lstm_out_13_batch_first_lstm_h0_squeeze_cast_fp16_to_fp32, output_sequence = lstm_out_13_batch_first_output_sequence_0, recurrent_activation = lstm_out_13_batch_first_recurrent_activation_0, weight_hh = concat_2_quantized, weight_ih = concat_1_quantized, x = transpose_12_cast_fp16_to_fp32)[name = tensor<string, []>("lstm_out_13_batch_first")];
            tensor<int32, [3]> transpose_13_perm_0 = const()[name = tensor<string, []>("transpose_13_perm_0"), val = tensor<int32, [3]>([1, 2, 0])];
            tensor<string, []> lstm_out_13_batch_first_0_to_fp16_dtype_0 = const()[name = tensor<string, []>("lstm_out_13_batch_first_0_to_fp16_dtype_0"), val = tensor<string, []>("fp16")];
            tensor<int32, [1]> hn_13_axes_0 = const()[name = tensor<string, []>("hn_13_axes_0"), val = tensor<int32, [1]>([0])];
            tensor<string, []> lstm_out_13_batch_first_1_to_fp16_dtype_0 = const()[name = tensor<string, []>("lstm_out_13_batch_first_1_to_fp16_dtype_0"), val = tensor<string, []>("fp16")];
            tensor<fp16, [1, 128]> lstm_out_13_batch_first_1_to_fp16 = cast(dtype = lstm_out_13_batch_first_1_to_fp16_dtype_0, x = lstm_out_13_batch_first_1)[name = tensor<string, []>("cast_11")];
            tensor<fp16, [1, 1, 128]> hn_13_cast_fp16 = expand_dims(axes = hn_13_axes_0, x = lstm_out_13_batch_first_1_to_fp16)[name = tensor<string, []>("hn_13_cast_fp16")];
            tensor<int32, [1]> cn_13_axes_0 = const()[name = tensor<string, []>("cn_13_axes_0"), val = tensor<int32, [1]>([0])];
            tensor<string, []> lstm_out_13_batch_first_2_to_fp16_dtype_0 = const()[name = tensor<string, []>("lstm_out_13_batch_first_2_to_fp16_dtype_0"), val = tensor<string, []>("fp16")];
            tensor<fp16, [1, 128]> lstm_out_13_batch_first_2_to_fp16 = cast(dtype = lstm_out_13_batch_first_2_to_fp16_dtype_0, x = lstm_out_13_batch_first_2)[name = tensor<string, []>("cast_10")];
            tensor<fp16, [1, 1, 128]> cn_13_cast_fp16 = expand_dims(axes = cn_13_axes_0, x = lstm_out_13_batch_first_2_to_fp16)[name = tensor<string, []>("cn_13_cast_fp16")];
            tensor<string, []> input_153_pad_type_0 = const()[name = tensor<string, []>("input_153_pad_type_0"), val = tensor<string, []>("valid")];
            tensor<int32, [1]> input_153_strides_0 = const()[name = tensor<string, []>("input_153_strides_0"), val = tensor<int32, [1]>([1])];
            tensor<int32, [2]> input_153_pad_0 = const()[name = tensor<string, []>("input_153_pad_0"), val = tensor<int32, [2]>([0, 0])];
            tensor<int32, [1]> input_153_dilations_0 = const()[name = tensor<string, []>("input_153_dilations_0"), val = tensor<int32, [1]>([1])];
            tensor<int32, []> input_153_groups_0 = const()[name = tensor<string, []>("input_153_groups_0"), val = tensor<int32, []>(1)];
            tensor<fp16, [3, 1, 128]> lstm_out_13_batch_first_0_to_fp16 = cast(dtype = lstm_out_13_batch_first_0_to_fp16_dtype_0, x = lstm_out_13_batch_first_0)[name = tensor<string, []>("cast_9")];
            tensor<fp16, [1, 128, 3]> transpose_13_cast_fp16 = transpose(perm = transpose_13_perm_0, x = lstm_out_13_batch_first_0_to_fp16)[name = tensor<string, []>("transpose_2")];
            tensor<fp16, [1, 1, 3]> input_153_cast_fp16 = conv(bias = decoder_final_conv_bias_to_fp16, dilations = input_153_dilations_0, groups = input_153_groups_0, pad = input_153_pad_0, pad_type = input_153_pad_type_0, strides = input_153_strides_0, weight = decoder_final_conv_weight_to_fp16, x = transpose_13_cast_fp16)[name = tensor<string, []>("input_153_cast_fp16")];
            tensor<fp16, [1, 1, 3]> out_13_cast_fp16 = sigmoid(x = input_153_cast_fp16)[name = tensor<string, []>("out_13_cast_fp16")];
            tensor<int32, [1]> var_1062_axes_0 = const()[name = tensor<string, []>("op_1062_axes_0"), val = tensor<int32, [1]>([2])];
            tensor<bool, []> var_1062_keep_dims_0 = const()[name = tensor<string, []>("op_1062_keep_dims_0"), val = tensor<bool, []>(true)];
            tensor<fp16, [1, 1, 1]> var_1062_cast_fp16 = reduce_mean(axes = var_1062_axes_0, keep_dims = var_1062_keep_dims_0, x = out_13_cast_fp16)[name = tensor<string, []>("op_1062_cast_fp16")];
            tensor<int32, [1]> x_101_axes_0 = const()[name = tensor<string, []>("x_101_axes_0"), val = tensor<int32, [1]>([1])];
            tensor<fp16, [1, 1, 576]> x_101_cast_fp16 = expand_dims(axes = x_101_axes_0, x = x_99_cast_fp16)[name = tensor<string, []>("x_101_cast_fp16")];
            tensor<string, []> stft_out_pad_type_0 = const()[name = tensor<string, []>("stft_out_pad_type_0"), val = tensor<string, []>("custom")];
            tensor<int32, [2]> stft_out_pad_0 = const()[name = tensor<string, []>("stft_out_pad_0"), val = tensor<int32, [2]>([128, 128])];
            tensor<int32, [1]> stft_out_strides_0 = const()[name = tensor<string, []>("stft_out_strides_0"), val = tensor<int32, [1]>([256])];
            tensor<int32, [1]> stft_out_dilations_0 = const()[name = tensor<string, []>("stft_out_dilations_0"), val = tensor<int32, [1]>([1])];
            tensor<int32, []> stft_out_groups_0 = const()[name = tensor<string, []>("stft_out_groups_0"), val = tensor<int32, []>(1)];
            tensor<fp16, [1, 258, 3]> stft_out_cast_fp16 = conv(dilations = stft_out_dilations_0, groups = stft_out_groups_0, pad = stft_out_pad_0, pad_type = stft_out_pad_type_0, strides = stft_out_strides_0, weight = stft_forward_basis_to_fp16_quantized, x = x_101_cast_fp16)[name = tensor<string, []>("stft_out_cast_fp16")];
            tensor<int32, [3]> var_1087_begin_0 = const()[name = tensor<string, []>("op_1087_begin_0"), val = tensor<int32, [3]>([0, 0, 0])];
            tensor<int32, [3]> var_1087_end_0 = const()[name = tensor<string, []>("op_1087_end_0"), val = tensor<int32, [3]>([1, 129, 3])];
            tensor<bool, [3]> var_1087_end_mask_0 = const()[name = tensor<string, []>("op_1087_end_mask_0"), val = tensor<bool, [3]>([true, false, true])];
            tensor<fp16, [1, 129, 3]> var_1087_cast_fp16 = slice_by_index(begin = var_1087_begin_0, end = var_1087_end_0, end_mask = var_1087_end_mask_0, x = stft_out_cast_fp16)[name = tensor<string, []>("op_1087_cast_fp16")];
            tensor<int32, [3]> var_1090_begin_0 = const()[name = tensor<string, []>("op_1090_begin_0"), val = tensor<int32, [3]>([0, 129, 0])];
            tensor<int32, [3]> var_1090_end_0 = const()[name = tensor<string, []>("op_1090_end_0"), val = tensor<int32, [3]>([1, 258, 3])];
            tensor<bool, [3]> var_1090_end_mask_0 = const()[name = tensor<string, []>("op_1090_end_mask_0"), val = tensor<bool, [3]>([true, true, true])];
            tensor<fp16, [1, 129, 3]> var_1090_cast_fp16 = slice_by_index(begin = var_1090_begin_0, end = var_1090_end_0, end_mask = var_1090_end_mask_0, x = stft_out_cast_fp16)[name = tensor<string, []>("op_1090_cast_fp16")];
            tensor<fp16, []> var_1069_promoted_to_fp16 = const()[name = tensor<string, []>("op_1069_promoted_to_fp16"), val = tensor<fp16, []>(0x1p+1)];
            tensor<fp16, [1, 129, 3]> var_1092_cast_fp16 = pow(x = var_1087_cast_fp16, y = var_1069_promoted_to_fp16)[name = tensor<string, []>("op_1092_cast_fp16")];
            tensor<fp16, []> var_1069_promoted_1_to_fp16 = const()[name = tensor<string, []>("op_1069_promoted_1_to_fp16"), val = tensor<fp16, []>(0x1p+1)];
            tensor<fp16, [1, 129, 3]> var_1093_cast_fp16 = pow(x = var_1090_cast_fp16, y = var_1069_promoted_1_to_fp16)[name = tensor<string, []>("op_1093_cast_fp16")];
            tensor<fp16, [1, 129, 3]> var_1094_cast_fp16 = add(x = var_1092_cast_fp16, y = var_1093_cast_fp16)[name = tensor<string, []>("op_1094_cast_fp16")];
            tensor<fp16, []> var_1095_to_fp16 = const()[name = tensor<string, []>("op_1095_to_fp16"), val = tensor<fp16, []>(0x1p-24)];
            tensor<fp16, [1, 129, 3]> var_1096_cast_fp16 = add(x = var_1094_cast_fp16, y = var_1095_to_fp16)[name = tensor<string, []>("op_1096_cast_fp16")];
            tensor<fp16, [1, 129, 3]> magnitude_cast_fp16 = sqrt(x = var_1096_cast_fp16)[name = tensor<string, []>("magnitude_cast_fp16")];
            tensor<fp16, []> var_1098_to_fp16 = const()[name = tensor<string, []>("op_1098_to_fp16"), val = tensor<fp16, []>(0x1p-24)];
            tensor<fp16, [1, 129, 3]> var_1099_cast_fp16 = add(x = magnitude_cast_fp16, y = var_1098_to_fp16)[name = tensor<string, []>("op_1099_cast_fp16")];
            tensor<fp16, []> input_155_epsilon_0_to_fp16 = const()[name = tensor<string, []>("input_155_epsilon_0_to_fp16"), val = tensor<fp16, []>(0x0p+0)];
            tensor<fp16, [1, 129, 3]> input_155_cast_fp16 = log(epsilon = input_155_epsilon_0_to_fp16, x = var_1099_cast_fp16)[name = tensor<string, []>("input_155_cast_fp16")];
            tensor<string, []> input_157_pad_type_0 = const()[name = tensor<string, []>("input_157_pad_type_0"), val = tensor<string, []>("custom")];
            tensor<int32, [2]> input_157_pad_0 = const()[name = tensor<string, []>("input_157_pad_0"), val = tensor<int32, [2]>([1, 1])];
            tensor<int32, [1]> input_157_strides_0 = const()[name = tensor<string, []>("input_157_strides_0"), val = tensor<int32, [1]>([1])];
            tensor<int32, [1]> input_157_dilations_0 = const()[name = tensor<string, []>("input_157_dilations_0"), val = tensor<int32, [1]>([1])];
            tensor<int32, []> input_157_groups_0 = const()[name = tensor<string, []>("input_157_groups_0"), val = tensor<int32, []>(1)];
            tensor<fp16, [1, 128, 3]> input_157_cast_fp16 = conv(bias = encoder_layers_0_bias_to_fp16, dilations = input_157_dilations_0, groups = input_157_groups_0, pad = input_157_pad_0, pad_type = input_157_pad_type_0, strides = input_157_strides_0, weight = encoder_layers_0_weight_to_fp16_quantized, x = input_155_cast_fp16)[name = tensor<string, []>("input_157_cast_fp16")];
            tensor<fp16, [1, 128, 3]> x_103_cast_fp16 = relu(x = input_157_cast_fp16)[name = tensor<string, []>("x_103_cast_fp16")];
            tensor<fp16, []> const_28_to_fp16 = const()[name = tensor<string, []>("const_28_to_fp16"), val = tensor<fp16, []>(-inf)];
            tensor<fp16, []> var_1101_to_fp16 = const()[name = tensor<string, []>("op_1101_to_fp16"), val = tensor<fp16, []>(0x1.388p+13)];
            tensor<fp16, [1, 128, 3]> clip_28_cast_fp16 = clip(alpha = const_28_to_fp16, beta = var_1101_to_fp16, x = x_103_cast_fp16)[name = tensor<string, []>("clip_28_cast_fp16")];
            tensor<string, []> input_161_pad_type_0 = const()[name = tensor<string, []>("input_161_pad_type_0"), val = tensor<string, []>("custom")];
            tensor<int32, [2]> input_161_pad_0 = const()[name = tensor<string, []>("input_161_pad_0"), val = tensor<int32, [2]>([1, 1])];
            tensor<int32, [1]> input_161_strides_0 = const()[name = tensor<string, []>("input_161_strides_0"), val = tensor<int32, [1]>([1])];
            tensor<int32, [1]> input_161_dilations_0 = const()[name = tensor<string, []>("input_161_dilations_0"), val = tensor<int32, [1]>([1])];
            tensor<int32, []> input_161_groups_0 = const()[name = tensor<string, []>("input_161_groups_0"), val = tensor<int32, []>(1)];
            tensor<fp16, [1, 64, 3]> input_161_cast_fp16 = conv(bias = encoder_layers_2_bias_to_fp16, dilations = input_161_dilations_0, groups = input_161_groups_0, pad = input_161_pad_0, pad_type = input_161_pad_type_0, strides = input_161_strides_0, weight = encoder_layers_2_weight_to_fp16_quantized, x = clip_28_cast_fp16)[name = tensor<string, []>("input_161_cast_fp16")];
            tensor<fp16, [1, 64, 3]> x_105_cast_fp16 = relu(x = input_161_cast_fp16)[name = tensor<string, []>("x_105_cast_fp16")];
            tensor<fp16, []> const_29_to_fp16 = const()[name = tensor<string, []>("const_29_to_fp16"), val = tensor<fp16, []>(-inf)];
            tensor<fp16, [1, 64, 3]> clip_29_cast_fp16 = clip(alpha = const_29_to_fp16, beta = var_1101_to_fp16, x = x_105_cast_fp16)[name = tensor<string, []>("clip_29_cast_fp16")];
            tensor<string, []> input_165_pad_type_0 = const()[name = tensor<string, []>("input_165_pad_type_0"), val = tensor<string, []>("custom")];
            tensor<int32, [2]> input_165_pad_0 = const()[name = tensor<string, []>("input_165_pad_0"), val = tensor<int32, [2]>([1, 1])];
            tensor<int32, [1]> input_165_strides_0 = const()[name = tensor<string, []>("input_165_strides_0"), val = tensor<int32, [1]>([1])];
            tensor<int32, [1]> input_165_dilations_0 = const()[name = tensor<string, []>("input_165_dilations_0"), val = tensor<int32, [1]>([1])];
            tensor<int32, []> input_165_groups_0 = const()[name = tensor<string, []>("input_165_groups_0"), val = tensor<int32, []>(1)];
            tensor<fp16, [1, 64, 3]> input_165_cast_fp16 = conv(bias = encoder_layers_4_bias_to_fp16, dilations = input_165_dilations_0, groups = input_165_groups_0, pad = input_165_pad_0, pad_type = input_165_pad_type_0, strides = input_165_strides_0, weight = encoder_layers_4_weight_to_fp16_quantized, x = clip_29_cast_fp16)[name = tensor<string, []>("input_165_cast_fp16")];
            tensor<fp16, [1, 64, 3]> x_107_cast_fp16 = relu(x = input_165_cast_fp16)[name = tensor<string, []>("x_107_cast_fp16")];
            tensor<fp16, []> const_30_to_fp16 = const()[name = tensor<string, []>("const_30_to_fp16"), val = tensor<fp16, []>(-inf)];
            tensor<fp16, [1, 64, 3]> clip_30_cast_fp16 = clip(alpha = const_30_to_fp16, beta = var_1101_to_fp16, x = x_107_cast_fp16)[name = tensor<string, []>("clip_30_cast_fp16")];
            tensor<string, []> input_169_pad_type_0 = const()[name = tensor<string, []>("input_169_pad_type_0"), val = tensor<string, []>("custom")];
            tensor<int32, [2]> input_169_pad_0 = const()[name = tensor<string, []>("input_169_pad_0"), val = tensor<int32, [2]>([1, 1])];
            tensor<int32, [1]> input_169_strides_0 = const()[name = tensor<string, []>("input_169_strides_0"), val = tensor<int32, [1]>([1])];
            tensor<int32, [1]> input_169_dilations_0 = const()[name = tensor<string, []>("input_169_dilations_0"), val = tensor<int32, [1]>([1])];
            tensor<int32, []> input_169_groups_0 = const()[name = tensor<string, []>("input_169_groups_0"), val = tensor<int32, []>(1)];
            tensor<fp16, [1, 128, 3]> input_169_cast_fp16 = conv(bias = encoder_layers_6_bias_to_fp16, dilations = input_169_dilations_0, groups = input_169_groups_0, pad = input_169_pad_0, pad_type = input_169_pad_type_0, strides = input_169_strides_0, weight = encoder_layers_6_weight_to_fp16_quantized, x = clip_30_cast_fp16)[name = tensor<string, []>("input_169_cast_fp16")];
            tensor<fp16, [1, 128, 3]> x_109_cast_fp16 = relu(x = input_169_cast_fp16)[name = tensor<string, []>("x_109_cast_fp16")];
            tensor<fp16, []> const_31_to_fp16 = const()[name = tensor<string, []>("const_31_to_fp16"), val = tensor<fp16, []>(-inf)];
            tensor<fp16, [1, 128, 3]> clip_31_cast_fp16 = clip(alpha = const_31_to_fp16, beta = var_1101_to_fp16, x = x_109_cast_fp16)[name = tensor<string, []>("clip_31_cast_fp16")];
            tensor<int32, [3]> transpose_14_perm_0 = const()[name = tensor<string, []>("transpose_14_perm_0"), val = tensor<int32, [3]>([2, 0, 1])];
            tensor<string, []> transpose_14_cast_fp16_to_fp32_dtype_0 = const()[name = tensor<string, []>("transpose_14_cast_fp16_to_fp32_dtype_0"), val = tensor<string, []>("fp32")];
            tensor<int32, [1]> lstm_out_batch_first_lstm_h0_squeeze_axes_0 = const()[name = tensor<string, []>("lstm_out_batch_first_lstm_h0_squeeze_axes_0"), val = tensor<int32, [1]>([0])];
            tensor<fp16, [1, 128]> lstm_out_batch_first_lstm_h0_squeeze_cast_fp16 = squeeze(axes = lstm_out_batch_first_lstm_h0_squeeze_axes_0, x = hn_13_cast_fp16)[name = tensor<string, []>("lstm_out_batch_first_lstm_h0_squeeze_cast_fp16")];
            tensor<string, []> lstm_out_batch_first_lstm_h0_squeeze_cast_fp16_to_fp32_dtype_0 = const()[name = tensor<string, []>("lstm_out_batch_first_lstm_h0_squeeze_cast_fp16_to_fp32_dtype_0"), val = tensor<string, []>("fp32")];
            tensor<int32, [1]> lstm_out_batch_first_lstm_c0_squeeze_axes_0 = const()[name = tensor<string, []>("lstm_out_batch_first_lstm_c0_squeeze_axes_0"), val = tensor<int32, [1]>([0])];
            tensor<fp16, [1, 128]> lstm_out_batch_first_lstm_c0_squeeze_cast_fp16 = squeeze(axes = lstm_out_batch_first_lstm_c0_squeeze_axes_0, x = cn_13_cast_fp16)[name = tensor<string, []>("lstm_out_batch_first_lstm_c0_squeeze_cast_fp16")];
            tensor<string, []> lstm_out_batch_first_lstm_c0_squeeze_cast_fp16_to_fp32_dtype_0 = const()[name = tensor<string, []>("lstm_out_batch_first_lstm_c0_squeeze_cast_fp16_to_fp32_dtype_0"), val = tensor<string, []>("fp32")];
            tensor<string, []> lstm_out_batch_first_direction_0 = const()[name = tensor<string, []>("lstm_out_batch_first_direction_0"), val = tensor<string, []>("forward")];
            tensor<bool, []> lstm_out_batch_first_output_sequence_0 = const()[name = tensor<string, []>("lstm_out_batch_first_output_sequence_0"), val = tensor<bool, []>(true)];
            tensor<string, []> lstm_out_batch_first_recurrent_activation_0 = const()[name = tensor<string, []>("lstm_out_batch_first_recurrent_activation_0"), val = tensor<string, []>("sigmoid")];
            tensor<string, []> lstm_out_batch_first_cell_activation_0 = const()[name = tensor<string, []>("lstm_out_batch_first_cell_activation_0"), val = tensor<string, []>("tanh")];
            tensor<string, []> lstm_out_batch_first_activation_0 = const()[name = tensor<string, []>("lstm_out_batch_first_activation_0"), val = tensor<string, []>("tanh")];
            tensor<fp16, [3, 1, 128]> transpose_14_cast_fp16 = transpose(perm = transpose_14_perm_0, x = clip_31_cast_fp16)[name = tensor<string, []>("transpose_1")];
            tensor<fp32, [3, 1, 128]> transpose_14_cast_fp16_to_fp32 = cast(dtype = transpose_14_cast_fp16_to_fp32_dtype_0, x = transpose_14_cast_fp16)[name = tensor<string, []>("cast_6")];
            tensor<fp32, [1, 128]> lstm_out_batch_first_lstm_h0_squeeze_cast_fp16_to_fp32 = cast(dtype = lstm_out_batch_first_lstm_h0_squeeze_cast_fp16_to_fp32_dtype_0, x = lstm_out_batch_first_lstm_h0_squeeze_cast_fp16)[name = tensor<string, []>("cast_7")];
            tensor<fp32, [1, 128]> lstm_out_batch_first_lstm_c0_squeeze_cast_fp16_to_fp32 = cast(dtype = lstm_out_batch_first_lstm_c0_squeeze_cast_fp16_to_fp32_dtype_0, x = lstm_out_batch_first_lstm_c0_squeeze_cast_fp16)[name = tensor<string, []>("cast_8")];
            tensor<fp32, [3, 1, 128]> lstm_out_batch_first_0, tensor<fp32, [1, 128]> lstm_out_batch_first_1, tensor<fp32, [1, 128]> lstm_out_batch_first_2 = lstm(activation = lstm_out_batch_first_activation_0, bias = concat_0, cell_activation = lstm_out_batch_first_cell_activation_0, direction = lstm_out_batch_first_direction_0, initial_c = lstm_out_batch_first_lstm_c0_squeeze_cast_fp16_to_fp32, initial_h = lstm_out_batch_first_lstm_h0_squeeze_cast_fp16_to_fp32, output_sequence = lstm_out_batch_first_output_sequence_0, recurrent_activation = lstm_out_batch_first_recurrent_activation_0, weight_hh = concat_2_quantized, weight_ih = concat_1_quantized, x = transpose_14_cast_fp16_to_fp32)[name = tensor<string, []>("lstm_out_batch_first")];
            tensor<int32, [3]> transpose_15_perm_0 = const()[name = tensor<string, []>("transpose_15_perm_0"), val = tensor<int32, [3]>([1, 2, 0])];
            tensor<string, []> lstm_out_batch_first_0_to_fp16_dtype_0 = const()[name = tensor<string, []>("lstm_out_batch_first_0_to_fp16_dtype_0"), val = tensor<string, []>("fp16")];
            tensor<int32, [1]> hn_axes_0 = const()[name = tensor<string, []>("hn_axes_0"), val = tensor<int32, [1]>([0])];
            tensor<string, []> lstm_out_batch_first_1_to_fp16_dtype_0 = const()[name = tensor<string, []>("lstm_out_batch_first_1_to_fp16_dtype_0"), val = tensor<string, []>("fp16")];
            tensor<fp16, [1, 128]> lstm_out_batch_first_1_to_fp16 = cast(dtype = lstm_out_batch_first_1_to_fp16_dtype_0, x = lstm_out_batch_first_1)[name = tensor<string, []>("cast_5")];
            tensor<fp16, [1, 1, 128]> hn_cast_fp16 = expand_dims(axes = hn_axes_0, x = lstm_out_batch_first_1_to_fp16)[name = tensor<string, []>("hn_cast_fp16")];
            tensor<int32, [1]> cn_axes_0 = const()[name = tensor<string, []>("cn_axes_0"), val = tensor<int32, [1]>([0])];
            tensor<string, []> lstm_out_batch_first_2_to_fp16_dtype_0 = const()[name = tensor<string, []>("lstm_out_batch_first_2_to_fp16_dtype_0"), val = tensor<string, []>("fp16")];
            tensor<fp16, [1, 128]> lstm_out_batch_first_2_to_fp16 = cast(dtype = lstm_out_batch_first_2_to_fp16_dtype_0, x = lstm_out_batch_first_2)[name = tensor<string, []>("cast_4")];
            tensor<fp16, [1, 1, 128]> cn_cast_fp16 = expand_dims(axes = cn_axes_0, x = lstm_out_batch_first_2_to_fp16)[name = tensor<string, []>("cn_cast_fp16")];
            tensor<string, []> input_pad_type_0 = const()[name = tensor<string, []>("input_pad_type_0"), val = tensor<string, []>("valid")];
            tensor<int32, [1]> input_strides_0 = const()[name = tensor<string, []>("input_strides_0"), val = tensor<int32, [1]>([1])];
            tensor<int32, [2]> input_pad_0 = const()[name = tensor<string, []>("input_pad_0"), val = tensor<int32, [2]>([0, 0])];
            tensor<int32, [1]> input_dilations_0 = const()[name = tensor<string, []>("input_dilations_0"), val = tensor<int32, [1]>([1])];
            tensor<int32, []> input_groups_0 = const()[name = tensor<string, []>("input_groups_0"), val = tensor<int32, []>(1)];
            tensor<fp16, [3, 1, 128]> lstm_out_batch_first_0_to_fp16 = cast(dtype = lstm_out_batch_first_0_to_fp16_dtype_0, x = lstm_out_batch_first_0)[name = tensor<string, []>("cast_3")];
            tensor<fp16, [1, 128, 3]> transpose_15_cast_fp16 = transpose(perm = transpose_15_perm_0, x = lstm_out_batch_first_0_to_fp16)[name = tensor<string, []>("transpose_0")];
            tensor<fp16, [1, 1, 3]> input_cast_fp16 = conv(bias = decoder_final_conv_bias_to_fp16, dilations = input_dilations_0, groups = input_groups_0, pad = input_pad_0, pad_type = input_pad_type_0, strides = input_strides_0, weight = decoder_final_conv_weight_to_fp16, x = transpose_15_cast_fp16)[name = tensor<string, []>("input_cast_fp16")];
            tensor<fp16, [1, 1, 3]> out_cast_fp16 = sigmoid(x = input_cast_fp16)[name = tensor<string, []>("out_cast_fp16")];
            tensor<int32, [1]> vad_out_axes_0 = const()[name = tensor<string, []>("vad_out_axes_0"), val = tensor<int32, [1]>([2])];
            tensor<bool, []> vad_out_keep_dims_0 = const()[name = tensor<string, []>("vad_out_keep_dims_0"), val = tensor<bool, []>(true)];
            tensor<fp16, [1, 1, 1]> vad_out_cast_fp16 = reduce_mean(axes = vad_out_axes_0, keep_dims = vad_out_keep_dims_0, x = out_cast_fp16)[name = tensor<string, []>("vad_out_cast_fp16")];
            tensor<int32, [1]> var_1187_axes_0 = const()[name = tensor<string, []>("op_1187_axes_0"), val = tensor<int32, [1]>([0])];
            tensor<fp16, [1, 128]> var_1187_cast_fp16 = squeeze(axes = var_1187_axes_0, x = hn_cast_fp16)[name = tensor<string, []>("op_1187_cast_fp16")];
            tensor<string, []> var_1187_cast_fp16_to_fp32_dtype_0 = const()[name = tensor<string, []>("op_1187_cast_fp16_to_fp32_dtype_0"), val = tensor<string, []>("fp32")];
            tensor<int32, [1]> var_1188_axes_0 = const()[name = tensor<string, []>("op_1188_axes_0"), val = tensor<int32, [1]>([0])];
            tensor<fp16, [1, 128]> var_1188_cast_fp16 = squeeze(axes = var_1188_axes_0, x = cn_cast_fp16)[name = tensor<string, []>("op_1188_cast_fp16")];
            tensor<string, []> var_1188_cast_fp16_to_fp32_dtype_0 = const()[name = tensor<string, []>("op_1188_cast_fp16_to_fp32_dtype_0"), val = tensor<string, []>("fp32")];
            tensor<int32, []> var_1194 = const()[name = tensor<string, []>("op_1194"), val = tensor<int32, []>(2)];
            tensor<bool, []> var_1195_interleave_0 = const()[name = tensor<string, []>("op_1195_interleave_0"), val = tensor<bool, []>(false)];
            tensor<fp16, [1, 1, 8]> var_1195_cast_fp16 = concat(axis = var_1194, interleave = var_1195_interleave_0, values = (var_318_cast_fp16, var_442_cast_fp16, var_566_cast_fp16, var_690_cast_fp16, var_814_cast_fp16, var_938_cast_fp16, var_1062_cast_fp16, vad_out_cast_fp16))[name = tensor<string, []>("op_1195_cast_fp16")];
            tensor<fp16, []> var_1196_to_fp16 = const()[name = tensor<string, []>("op_1196_to_fp16"), val = tensor<fp16, []>(0x1p+0)];
            tensor<fp16, [1, 1, 8]> one_minus_probs_cast_fp16 = sub(x = var_1196_to_fp16, y = var_1195_cast_fp16)[name = tensor<string, []>("one_minus_probs_cast_fp16")];
            tensor<int32, [3]> product_1_begin_0 = const()[name = tensor<string, []>("product_1_begin_0"), val = tensor<int32, [3]>([0, 0, 0])];
            tensor<int32, [3]> product_1_end_0 = const()[name = tensor<string, []>("product_1_end_0"), val = tensor<int32, [3]>([1, 1, 1])];
            tensor<bool, [3]> product_1_end_mask_0 = const()[name = tensor<string, []>("product_1_end_mask_0"), val = tensor<bool, [3]>([true, true, false])];
            tensor<fp16, [1, 1, 1]> product_1_cast_fp16 = slice_by_index(begin = product_1_begin_0, end = product_1_end_0, end_mask = product_1_end_mask_0, x = one_minus_probs_cast_fp16)[name = tensor<string, []>("product_1_cast_fp16")];
            tensor<int32, [3]> var_1228_begin_0 = const()[name = tensor<string, []>("op_1228_begin_0"), val = tensor<int32, [3]>([0, 0, 1])];
            tensor<int32, [3]> var_1228_end_0 = const()[name = tensor<string, []>("op_1228_end_0"), val = tensor<int32, [3]>([1, 1, 2])];
            tensor<bool, [3]> var_1228_end_mask_0 = const()[name = tensor<string, []>("op_1228_end_mask_0"), val = tensor<bool, [3]>([true, true, false])];
            tensor<fp16, [1, 1, 1]> var_1228_cast_fp16 = slice_by_index(begin = var_1228_begin_0, end = var_1228_end_0, end_mask = var_1228_end_mask_0, x = one_minus_probs_cast_fp16)[name = tensor<string, []>("op_1228_cast_fp16")];
            tensor<fp16, [1, 1, 1]> product_3_cast_fp16 = mul(x = product_1_cast_fp16, y = var_1228_cast_fp16)[name = tensor<string, []>("product_3_cast_fp16")];
            tensor<int32, [3]> var_1244_begin_0 = const()[name = tensor<string, []>("op_1244_begin_0"), val = tensor<int32, [3]>([0, 0, 2])];
            tensor<int32, [3]> var_1244_end_0 = const()[name = tensor<string, []>("op_1244_end_0"), val = tensor<int32, [3]>([1, 1, 3])];
            tensor<bool, [3]> var_1244_end_mask_0 = const()[name = tensor<string, []>("op_1244_end_mask_0"), val = tensor<bool, [3]>([true, true, false])];
            tensor<fp16, [1, 1, 1]> var_1244_cast_fp16 = slice_by_index(begin = var_1244_begin_0, end = var_1244_end_0, end_mask = var_1244_end_mask_0, x = one_minus_probs_cast_fp16)[name = tensor<string, []>("op_1244_cast_fp16")];
            tensor<fp16, [1, 1, 1]> product_5_cast_fp16 = mul(x = product_3_cast_fp16, y = var_1244_cast_fp16)[name = tensor<string, []>("product_5_cast_fp16")];
            tensor<int32, [3]> var_1260_begin_0 = const()[name = tensor<string, []>("op_1260_begin_0"), val = tensor<int32, [3]>([0, 0, 3])];
            tensor<int32, [3]> var_1260_end_0 = const()[name = tensor<string, []>("op_1260_end_0"), val = tensor<int32, [3]>([1, 1, 4])];
            tensor<bool, [3]> var_1260_end_mask_0 = const()[name = tensor<string, []>("op_1260_end_mask_0"), val = tensor<bool, [3]>([true, true, false])];
            tensor<fp16, [1, 1, 1]> var_1260_cast_fp16 = slice_by_index(begin = var_1260_begin_0, end = var_1260_end_0, end_mask = var_1260_end_mask_0, x = one_minus_probs_cast_fp16)[name = tensor<string, []>("op_1260_cast_fp16")];
            tensor<fp16, [1, 1, 1]> product_7_cast_fp16 = mul(x = product_5_cast_fp16, y = var_1260_cast_fp16)[name = tensor<string, []>("product_7_cast_fp16")];
            tensor<int32, [3]> var_1276_begin_0 = const()[name = tensor<string, []>("op_1276_begin_0"), val = tensor<int32, [3]>([0, 0, 4])];
            tensor<int32, [3]> var_1276_end_0 = const()[name = tensor<string, []>("op_1276_end_0"), val = tensor<int32, [3]>([1, 1, 5])];
            tensor<bool, [3]> var_1276_end_mask_0 = const()[name = tensor<string, []>("op_1276_end_mask_0"), val = tensor<bool, [3]>([true, true, false])];
            tensor<fp16, [1, 1, 1]> var_1276_cast_fp16 = slice_by_index(begin = var_1276_begin_0, end = var_1276_end_0, end_mask = var_1276_end_mask_0, x = one_minus_probs_cast_fp16)[name = tensor<string, []>("op_1276_cast_fp16")];
            tensor<fp16, [1, 1, 1]> product_9_cast_fp16 = mul(x = product_7_cast_fp16, y = var_1276_cast_fp16)[name = tensor<string, []>("product_9_cast_fp16")];
            tensor<int32, [3]> var_1292_begin_0 = const()[name = tensor<string, []>("op_1292_begin_0"), val = tensor<int32, [3]>([0, 0, 5])];
            tensor<int32, [3]> var_1292_end_0 = const()[name = tensor<string, []>("op_1292_end_0"), val = tensor<int32, [3]>([1, 1, 6])];
            tensor<bool, [3]> var_1292_end_mask_0 = const()[name = tensor<string, []>("op_1292_end_mask_0"), val = tensor<bool, [3]>([true, true, false])];
            tensor<fp16, [1, 1, 1]> var_1292_cast_fp16 = slice_by_index(begin = var_1292_begin_0, end = var_1292_end_0, end_mask = var_1292_end_mask_0, x = one_minus_probs_cast_fp16)[name = tensor<string, []>("op_1292_cast_fp16")];
            tensor<fp16, [1, 1, 1]> product_11_cast_fp16 = mul(x = product_9_cast_fp16, y = var_1292_cast_fp16)[name = tensor<string, []>("product_11_cast_fp16")];
            tensor<int32, [3]> var_1308_begin_0 = const()[name = tensor<string, []>("op_1308_begin_0"), val = tensor<int32, [3]>([0, 0, 6])];
            tensor<int32, [3]> var_1308_end_0 = const()[name = tensor<string, []>("op_1308_end_0"), val = tensor<int32, [3]>([1, 1, 7])];
            tensor<bool, [3]> var_1308_end_mask_0 = const()[name = tensor<string, []>("op_1308_end_mask_0"), val = tensor<bool, [3]>([true, true, false])];
            tensor<fp16, [1, 1, 1]> var_1308_cast_fp16 = slice_by_index(begin = var_1308_begin_0, end = var_1308_end_0, end_mask = var_1308_end_mask_0, x = one_minus_probs_cast_fp16)[name = tensor<string, []>("op_1308_cast_fp16")];
            tensor<fp16, [1, 1, 1]> product_cast_fp16 = mul(x = product_11_cast_fp16, y = var_1308_cast_fp16)[name = tensor<string, []>("product_cast_fp16")];
            tensor<int32, [3]> var_1324_begin_0 = const()[name = tensor<string, []>("op_1324_begin_0"), val = tensor<int32, [3]>([0, 0, 7])];
            tensor<int32, [3]> var_1324_end_0 = const()[name = tensor<string, []>("op_1324_end_0"), val = tensor<int32, [3]>([1, 1, 1])];
            tensor<bool, [3]> var_1324_end_mask_0 = const()[name = tensor<string, []>("op_1324_end_mask_0"), val = tensor<bool, [3]>([true, true, true])];
            tensor<fp16, [1, 1, 1]> var_1324_cast_fp16 = slice_by_index(begin = var_1324_begin_0, end = var_1324_end_0, end_mask = var_1324_end_mask_0, x = one_minus_probs_cast_fp16)[name = tensor<string, []>("op_1324_cast_fp16")];
            tensor<fp16, [1, 1, 1]> var_1325_cast_fp16 = mul(x = product_cast_fp16, y = var_1324_cast_fp16)[name = tensor<string, []>("op_1325_cast_fp16")];
            tensor<fp16, []> var_1326_to_fp16 = const()[name = tensor<string, []>("op_1326_to_fp16"), val = tensor<fp16, []>(0x1p+0)];
            tensor<fp16, [1, 1, 1]> var_1328_cast_fp16 = sub(x = var_1326_to_fp16, y = var_1325_cast_fp16)[name = tensor<string, []>("op_1328_cast_fp16")];
            tensor<string, []> var_1328_cast_fp16_to_fp32_dtype_0 = const()[name = tensor<string, []>("op_1328_cast_fp16_to_fp32_dtype_0"), val = tensor<string, []>("fp32")];
            tensor<fp32, [1, 128]> new_hidden_state = cast(dtype = var_1187_cast_fp16_to_fp32_dtype_0, x = var_1187_cast_fp16)[name = tensor<string, []>("cast_0")];
            tensor<fp32, [1, 128]> new_cell_state = cast(dtype = var_1188_cast_fp16_to_fp32_dtype_0, x = var_1188_cast_fp16)[name = tensor<string, []>("cast_1")];
            tensor<fp32, [1, 1, 1]> vad_output = cast(dtype = var_1328_cast_fp16_to_fp32_dtype_0, x = var_1328_cast_fp16)[name = tensor<string, []>("cast_2")];
        } -> (vad_output, new_hidden_state, new_cell_state);
}